{"modelTopology":{"class_name":"Sequential","config":{"name":"sequential_1","layers":[{"class_name":"Dense","config":{"units":100,"activation":"sigmoid","use_bias":true,"kernel_initializer":{"class_name":"VarianceScaling","config":{"scale":1,"mode":"fan_avg","distribution":"normal","seed":null}},"bias_initializer":{"class_name":"Zeros","config":{}},"kernel_regularizer":null,"bias_regularizer":null,"activity_regularizer":null,"kernel_constraint":null,"bias_constraint":null,"name":"dense_Dense1","trainable":true,"batch_input_shape":[null,2],"dtype":"float32"}},{"class_name":"Dense","config":{"units":100,"activation":"sigmoid","use_bias":true,"kernel_initializer":{"class_name":"VarianceScaling","config":{"scale":1,"mode":"fan_avg","distribution":"normal","seed":null}},"bias_initializer":{"class_name":"Zeros","config":{}},"kernel_regularizer":null,"bias_regularizer":null,"activity_regularizer":null,"kernel_constraint":null,"bias_constraint":null,"name":"dense_Dense2","trainable":true,"batch_input_shape":[null,100],"dtype":"float32"}},{"class_name":"Dense","config":{"units":100,"activation":"sigmoid","use_bias":true,"kernel_initializer":{"class_name":"VarianceScaling","config":{"scale":1,"mode":"fan_avg","distribution":"normal","seed":null}},"bias_initializer":{"class_name":"Zeros","config":{}},"kernel_regularizer":null,"bias_regularizer":null,"activity_regularizer":null,"kernel_constraint":null,"bias_constraint":null,"name":"dense_Dense3","trainable":true,"batch_input_shape":[null,100],"dtype":"float32"}},{"class_name":"Dense","config":{"units":100,"activation":"sigmoid","use_bias":true,"kernel_initializer":{"class_name":"VarianceScaling","config":{"scale":1,"mode":"fan_avg","distribution":"normal","seed":null}},"bias_initializer":{"class_name":"Zeros","config":{}},"kernel_regularizer":null,"bias_regularizer":null,"activity_regularizer":null,"kernel_constraint":null,"bias_constraint":null,"name":"dense_Dense4","trainable":true,"batch_input_shape":[null,100],"dtype":"float32"}},{"class_name":"Dense","config":{"units":100,"activation":"sigmoid","use_bias":true,"kernel_initializer":{"class_name":"VarianceScaling","config":{"scale":1,"mode":"fan_avg","distribution":"normal","seed":null}},"bias_initializer":{"class_name":"Zeros","config":{}},"kernel_regularizer":null,"bias_regularizer":null,"activity_regularizer":null,"kernel_constraint":null,"bias_constraint":null,"name":"dense_Dense5","trainable":true,"batch_input_shape":[null,100],"dtype":"float32"}},{"class_name":"Dense","config":{"units":100,"activation":"sigmoid","use_bias":true,"kernel_initializer":{"class_name":"VarianceScaling","config":{"scale":1,"mode":"fan_avg","distribution":"normal","seed":null}},"bias_initializer":{"class_name":"Zeros","config":{}},"kernel_regularizer":null,"bias_regularizer":null,"activity_regularizer":null,"kernel_constraint":null,"bias_constraint":null,"name":"dense_Dense6","trainable":true,"batch_input_shape":[null,100],"dtype":"float32"}},{"class_name":"Dense","config":{"units":100,"activation":"sigmoid","use_bias":true,"kernel_initializer":{"class_name":"VarianceScaling","config":{"scale":1,"mode":"fan_avg","distribution":"normal","seed":null}},"bias_initializer":{"class_name":"Zeros","config":{}},"kernel_regularizer":null,"bias_regularizer":null,"activity_regularizer":null,"kernel_constraint":null,"bias_constraint":null,"name":"dense_Dense7","trainable":true,"batch_input_shape":[null,100],"dtype":"float32"}},{"class_name":"Dense","config":{"units":100,"activation":"sigmoid","use_bias":true,"kernel_initializer":{"class_name":"VarianceScaling","config":{"scale":1,"mode":"fan_avg","distribution":"normal","seed":null}},"bias_initializer":{"class_name":"Zeros","config":{}},"kernel_regularizer":null,"bias_regularizer":null,"activity_regularizer":null,"kernel_constraint":null,"bias_constraint":null,"name":"dense_Dense8","trainable":true,"batch_input_shape":[null,100],"dtype":"float32"}},{"class_name":"Dense","config":{"units":100,"activation":"sigmoid","use_bias":true,"kernel_initializer":{"class_name":"VarianceScaling","config":{"scale":1,"mode":"fan_avg","distribution":"normal","seed":null}},"bias_initializer":{"class_name":"Zeros","config":{}},"kernel_regularizer":null,"bias_regularizer":null,"activity_regularizer":null,"kernel_constraint":null,"bias_constraint":null,"name":"dense_Dense9","trainable":true,"batch_input_shape":[null,100],"dtype":"float32"}},{"class_name":"Dense","config":{"units":100,"activation":"sigmoid","use_bias":true,"kernel_initializer":{"class_name":"VarianceScaling","config":{"scale":1,"mode":"fan_avg","distribution":"normal","seed":null}},"bias_initializer":{"class_name":"Zeros","config":{}},"kernel_regularizer":null,"bias_regularizer":null,"activity_regularizer":null,"kernel_constraint":null,"bias_constraint":null,"name":"dense_Dense10","trainable":true,"batch_input_shape":[null,100],"dtype":"float32"}},{"class_name":"Dense","config":{"units":100,"activation":"sigmoid","use_bias":true,"kernel_initializer":{"class_name":"VarianceScaling","config":{"scale":1,"mode":"fan_avg","distribution":"normal","seed":null}},"bias_initializer":{"class_name":"Zeros","config":{}},"kernel_regularizer":null,"bias_regularizer":null,"activity_regularizer":null,"kernel_constraint":null,"bias_constraint":null,"name":"dense_Dense11","trainable":true,"batch_input_shape":[null,100],"dtype":"float32"}},{"class_name":"Dense","config":{"units":100,"activation":"sigmoid","use_bias":true,"kernel_initializer":{"class_name":"VarianceScaling","config":{"scale":1,"mode":"fan_avg","distribution":"normal","seed":null}},"bias_initializer":{"class_name":"Zeros","config":{}},"kernel_regularizer":null,"bias_regularizer":null,"activity_regularizer":null,"kernel_constraint":null,"bias_constraint":null,"name":"dense_Dense12","trainable":true,"batch_input_shape":[null,100],"dtype":"float32"}},{"class_name":"Dense","config":{"units":100,"activation":"sigmoid","use_bias":true,"kernel_initializer":{"class_name":"VarianceScaling","config":{"scale":1,"mode":"fan_avg","distribution":"normal","seed":null}},"bias_initializer":{"class_name":"Zeros","config":{}},"kernel_regularizer":null,"bias_regularizer":null,"activity_regularizer":null,"kernel_constraint":null,"bias_constraint":null,"name":"dense_Dense13","trainable":true,"batch_input_shape":[null,100],"dtype":"float32"}},{"class_name":"Dense","config":{"units":100,"activation":"sigmoid","use_bias":true,"kernel_initializer":{"class_name":"VarianceScaling","config":{"scale":1,"mode":"fan_avg","distribution":"normal","seed":null}},"bias_initializer":{"class_name":"Zeros","config":{}},"kernel_regularizer":null,"bias_regularizer":null,"activity_regularizer":null,"kernel_constraint":null,"bias_constraint":null,"name":"dense_Dense14","trainable":true,"batch_input_shape":[null,100],"dtype":"float32"}},{"class_name":"Dense","config":{"units":100,"activation":"sigmoid","use_bias":true,"kernel_initializer":{"class_name":"VarianceScaling","config":{"scale":1,"mode":"fan_avg","distribution":"normal","seed":null}},"bias_initializer":{"class_name":"Zeros","config":{}},"kernel_regularizer":null,"bias_regularizer":null,"activity_regularizer":null,"kernel_constraint":null,"bias_constraint":null,"name":"dense_Dense15","trainable":true,"batch_input_shape":[null,100],"dtype":"float32"}},{"class_name":"Dense","config":{"units":100,"activation":"sigmoid","use_bias":true,"kernel_initializer":{"class_name":"VarianceScaling","config":{"scale":1,"mode":"fan_avg","distribution":"normal","seed":null}},"bias_initializer":{"class_name":"Zeros","config":{}},"kernel_regularizer":null,"bias_regularizer":null,"activity_regularizer":null,"kernel_constraint":null,"bias_constraint":null,"name":"dense_Dense16","trainable":true,"batch_input_shape":[null,100],"dtype":"float32"}},{"class_name":"Dense","config":{"units":100,"activation":"sigmoid","use_bias":true,"kernel_initializer":{"class_name":"VarianceScaling","config":{"scale":1,"mode":"fan_avg","distribution":"normal","seed":null}},"bias_initializer":{"class_name":"Zeros","config":{}},"kernel_regularizer":null,"bias_regularizer":null,"activity_regularizer":null,"kernel_constraint":null,"bias_constraint":null,"name":"dense_Dense17","trainable":true,"batch_input_shape":[null,100],"dtype":"float32"}},{"class_name":"Dense","config":{"units":100,"activation":"sigmoid","use_bias":true,"kernel_initializer":{"class_name":"VarianceScaling","config":{"scale":1,"mode":"fan_avg","distribution":"normal","seed":null}},"bias_initializer":{"class_name":"Zeros","config":{}},"kernel_regularizer":null,"bias_regularizer":null,"activity_regularizer":null,"kernel_constraint":null,"bias_constraint":null,"name":"dense_Dense18","trainable":true,"batch_input_shape":[null,100],"dtype":"float32"}},{"class_name":"Dense","config":{"units":100,"activation":"sigmoid","use_bias":true,"kernel_initializer":{"class_name":"VarianceScaling","config":{"scale":1,"mode":"fan_avg","distribution":"normal","seed":null}},"bias_initializer":{"class_name":"Zeros","config":{}},"kernel_regularizer":null,"bias_regularizer":null,"activity_regularizer":null,"kernel_constraint":null,"bias_constraint":null,"name":"dense_Dense19","trainable":true,"batch_input_shape":[null,100],"dtype":"float32"}},{"class_name":"Dense","config":{"units":100,"activation":"sigmoid","use_bias":true,"kernel_initializer":{"class_name":"VarianceScaling","config":{"scale":1,"mode":"fan_avg","distribution":"normal","seed":null}},"bias_initializer":{"class_name":"Zeros","config":{}},"kernel_regularizer":null,"bias_regularizer":null,"activity_regularizer":null,"kernel_constraint":null,"bias_constraint":null,"name":"dense_Dense20","trainable":true,"batch_input_shape":[null,100],"dtype":"float32"}},{"class_name":"Dense","config":{"units":100,"activation":"sigmoid","use_bias":true,"kernel_initializer":{"class_name":"VarianceScaling","config":{"scale":1,"mode":"fan_avg","distribution":"normal","seed":null}},"bias_initializer":{"class_name":"Zeros","config":{}},"kernel_regularizer":null,"bias_regularizer":null,"activity_regularizer":null,"kernel_constraint":null,"bias_constraint":null,"name":"dense_Dense21","trainable":true,"batch_input_shape":[null,100],"dtype":"float32"}},{"class_name":"Dense","config":{"units":100,"activation":"sigmoid","use_bias":true,"kernel_initializer":{"class_name":"VarianceScaling","config":{"scale":1,"mode":"fan_avg","distribution":"normal","seed":null}},"bias_initializer":{"class_name":"Zeros","config":{}},"kernel_regularizer":null,"bias_regularizer":null,"activity_regularizer":null,"kernel_constraint":null,"bias_constraint":null,"name":"dense_Dense22","trainable":true,"batch_input_shape":[null,100],"dtype":"float32"}},{"class_name":"Dense","config":{"units":100,"activation":"sigmoid","use_bias":true,"kernel_initializer":{"class_name":"VarianceScaling","config":{"scale":1,"mode":"fan_avg","distribution":"normal","seed":null}},"bias_initializer":{"class_name":"Zeros","config":{}},"kernel_regularizer":null,"bias_regularizer":null,"activity_regularizer":null,"kernel_constraint":null,"bias_constraint":null,"name":"dense_Dense23","trainable":true,"batch_input_shape":[null,100],"dtype":"float32"}},{"class_name":"Dense","config":{"units":100,"activation":"sigmoid","use_bias":true,"kernel_initializer":{"class_name":"VarianceScaling","config":{"scale":1,"mode":"fan_avg","distribution":"normal","seed":null}},"bias_initializer":{"class_name":"Zeros","config":{}},"kernel_regularizer":null,"bias_regularizer":null,"activity_regularizer":null,"kernel_constraint":null,"bias_constraint":null,"name":"dense_Dense24","trainable":true,"batch_input_shape":[null,100],"dtype":"float32"}},{"class_name":"Dense","config":{"units":100,"activation":"sigmoid","use_bias":true,"kernel_initializer":{"class_name":"VarianceScaling","config":{"scale":1,"mode":"fan_avg","distribution":"normal","seed":null}},"bias_initializer":{"class_name":"Zeros","config":{}},"kernel_regularizer":null,"bias_regularizer":null,"activity_regularizer":null,"kernel_constraint":null,"bias_constraint":null,"name":"dense_Dense25","trainable":true,"batch_input_shape":[null,100],"dtype":"float32"}},{"class_name":"Dense","config":{"units":100,"activation":"sigmoid","use_bias":true,"kernel_initializer":{"class_name":"VarianceScaling","config":{"scale":1,"mode":"fan_avg","distribution":"normal","seed":null}},"bias_initializer":{"class_name":"Zeros","config":{}},"kernel_regularizer":null,"bias_regularizer":null,"activity_regularizer":null,"kernel_constraint":null,"bias_constraint":null,"name":"dense_Dense26","trainable":true,"batch_input_shape":[null,100],"dtype":"float32"}},{"class_name":"Dense","config":{"units":100,"activation":"sigmoid","use_bias":true,"kernel_initializer":{"class_name":"VarianceScaling","config":{"scale":1,"mode":"fan_avg","distribution":"normal","seed":null}},"bias_initializer":{"class_name":"Zeros","config":{}},"kernel_regularizer":null,"bias_regularizer":null,"activity_regularizer":null,"kernel_constraint":null,"bias_constraint":null,"name":"dense_Dense27","trainable":true,"batch_input_shape":[null,100],"dtype":"float32"}},{"class_name":"Dense","config":{"units":100,"activation":"sigmoid","use_bias":true,"kernel_initializer":{"class_name":"VarianceScaling","config":{"scale":1,"mode":"fan_avg","distribution":"normal","seed":null}},"bias_initializer":{"class_name":"Zeros","config":{}},"kernel_regularizer":null,"bias_regularizer":null,"activity_regularizer":null,"kernel_constraint":null,"bias_constraint":null,"name":"dense_Dense28","trainable":true,"batch_input_shape":[null,100],"dtype":"float32"}},{"class_name":"Dense","config":{"units":100,"activation":"sigmoid","use_bias":true,"kernel_initializer":{"class_name":"VarianceScaling","config":{"scale":1,"mode":"fan_avg","distribution":"normal","seed":null}},"bias_initializer":{"class_name":"Zeros","config":{}},"kernel_regularizer":null,"bias_regularizer":null,"activity_regularizer":null,"kernel_constraint":null,"bias_constraint":null,"name":"dense_Dense29","trainable":true,"batch_input_shape":[null,100],"dtype":"float32"}},{"class_name":"Dense","config":{"units":100,"activation":"sigmoid","use_bias":true,"kernel_initializer":{"class_name":"VarianceScaling","config":{"scale":1,"mode":"fan_avg","distribution":"normal","seed":null}},"bias_initializer":{"class_name":"Zeros","config":{}},"kernel_regularizer":null,"bias_regularizer":null,"activity_regularizer":null,"kernel_constraint":null,"bias_constraint":null,"name":"dense_Dense30","trainable":true,"batch_input_shape":[null,100],"dtype":"float32"}},{"class_name":"Dense","config":{"units":100,"activation":"sigmoid","use_bias":true,"kernel_initializer":{"class_name":"VarianceScaling","config":{"scale":1,"mode":"fan_avg","distribution":"normal","seed":null}},"bias_initializer":{"class_name":"Zeros","config":{}},"kernel_regularizer":null,"bias_regularizer":null,"activity_regularizer":null,"kernel_constraint":null,"bias_constraint":null,"name":"dense_Dense31","trainable":true,"batch_input_shape":[null,100],"dtype":"float32"}},{"class_name":"Dense","config":{"units":100,"activation":"sigmoid","use_bias":true,"kernel_initializer":{"class_name":"VarianceScaling","config":{"scale":1,"mode":"fan_avg","distribution":"normal","seed":null}},"bias_initializer":{"class_name":"Zeros","config":{}},"kernel_regularizer":null,"bias_regularizer":null,"activity_regularizer":null,"kernel_constraint":null,"bias_constraint":null,"name":"dense_Dense32","trainable":true,"batch_input_shape":[null,100],"dtype":"float32"}},{"class_name":"Dense","config":{"units":100,"activation":"sigmoid","use_bias":true,"kernel_initializer":{"class_name":"VarianceScaling","config":{"scale":1,"mode":"fan_avg","distribution":"normal","seed":null}},"bias_initializer":{"class_name":"Zeros","config":{}},"kernel_regularizer":null,"bias_regularizer":null,"activity_regularizer":null,"kernel_constraint":null,"bias_constraint":null,"name":"dense_Dense33","trainable":true,"batch_input_shape":[null,100],"dtype":"float32"}},{"class_name":"Dense","config":{"units":100,"activation":"sigmoid","use_bias":true,"kernel_initializer":{"class_name":"VarianceScaling","config":{"scale":1,"mode":"fan_avg","distribution":"normal","seed":null}},"bias_initializer":{"class_name":"Zeros","config":{}},"kernel_regularizer":null,"bias_regularizer":null,"activity_regularizer":null,"kernel_constraint":null,"bias_constraint":null,"name":"dense_Dense34","trainable":true,"batch_input_shape":[null,100],"dtype":"float32"}},{"class_name":"Dense","config":{"units":100,"activation":"sigmoid","use_bias":true,"kernel_initializer":{"class_name":"VarianceScaling","config":{"scale":1,"mode":"fan_avg","distribution":"normal","seed":null}},"bias_initializer":{"class_name":"Zeros","config":{}},"kernel_regularizer":null,"bias_regularizer":null,"activity_regularizer":null,"kernel_constraint":null,"bias_constraint":null,"name":"dense_Dense35","trainable":true,"batch_input_shape":[null,100],"dtype":"float32"}},{"class_name":"Dense","config":{"units":100,"activation":"sigmoid","use_bias":true,"kernel_initializer":{"class_name":"VarianceScaling","config":{"scale":1,"mode":"fan_avg","distribution":"normal","seed":null}},"bias_initializer":{"class_name":"Zeros","config":{}},"kernel_regularizer":null,"bias_regularizer":null,"activity_regularizer":null,"kernel_constraint":null,"bias_constraint":null,"name":"dense_Dense36","trainable":true,"batch_input_shape":[null,100],"dtype":"float32"}},{"class_name":"Dense","config":{"units":100,"activation":"sigmoid","use_bias":true,"kernel_initializer":{"class_name":"VarianceScaling","config":{"scale":1,"mode":"fan_avg","distribution":"normal","seed":null}},"bias_initializer":{"class_name":"Zeros","config":{}},"kernel_regularizer":null,"bias_regularizer":null,"activity_regularizer":null,"kernel_constraint":null,"bias_constraint":null,"name":"dense_Dense37","trainable":true,"batch_input_shape":[null,100],"dtype":"float32"}},{"class_name":"Dense","config":{"units":100,"activation":"sigmoid","use_bias":true,"kernel_initializer":{"class_name":"VarianceScaling","config":{"scale":1,"mode":"fan_avg","distribution":"normal","seed":null}},"bias_initializer":{"class_name":"Zeros","config":{}},"kernel_regularizer":null,"bias_regularizer":null,"activity_regularizer":null,"kernel_constraint":null,"bias_constraint":null,"name":"dense_Dense38","trainable":true,"batch_input_shape":[null,100],"dtype":"float32"}},{"class_name":"Dense","config":{"units":100,"activation":"sigmoid","use_bias":true,"kernel_initializer":{"class_name":"VarianceScaling","config":{"scale":1,"mode":"fan_avg","distribution":"normal","seed":null}},"bias_initializer":{"class_name":"Zeros","config":{}},"kernel_regularizer":null,"bias_regularizer":null,"activity_regularizer":null,"kernel_constraint":null,"bias_constraint":null,"name":"dense_Dense39","trainable":true,"batch_input_shape":[null,100],"dtype":"float32"}},{"class_name":"Dense","config":{"units":100,"activation":"sigmoid","use_bias":true,"kernel_initializer":{"class_name":"VarianceScaling","config":{"scale":1,"mode":"fan_avg","distribution":"normal","seed":null}},"bias_initializer":{"class_name":"Zeros","config":{}},"kernel_regularizer":null,"bias_regularizer":null,"activity_regularizer":null,"kernel_constraint":null,"bias_constraint":null,"name":"dense_Dense40","trainable":true,"batch_input_shape":[null,100],"dtype":"float32"}},{"class_name":"Dense","config":{"units":100,"activation":"sigmoid","use_bias":true,"kernel_initializer":{"class_name":"VarianceScaling","config":{"scale":1,"mode":"fan_avg","distribution":"normal","seed":null}},"bias_initializer":{"class_name":"Zeros","config":{}},"kernel_regularizer":null,"bias_regularizer":null,"activity_regularizer":null,"kernel_constraint":null,"bias_constraint":null,"name":"dense_Dense41","trainable":true,"batch_input_shape":[null,100],"dtype":"float32"}},{"class_name":"Dense","config":{"units":100,"activation":"sigmoid","use_bias":true,"kernel_initializer":{"class_name":"VarianceScaling","config":{"scale":1,"mode":"fan_avg","distribution":"normal","seed":null}},"bias_initializer":{"class_name":"Zeros","config":{}},"kernel_regularizer":null,"bias_regularizer":null,"activity_regularizer":null,"kernel_constraint":null,"bias_constraint":null,"name":"dense_Dense42","trainable":true,"batch_input_shape":[null,100],"dtype":"float32"}},{"class_name":"Dense","config":{"units":100,"activation":"sigmoid","use_bias":true,"kernel_initializer":{"class_name":"VarianceScaling","config":{"scale":1,"mode":"fan_avg","distribution":"normal","seed":null}},"bias_initializer":{"class_name":"Zeros","config":{}},"kernel_regularizer":null,"bias_regularizer":null,"activity_regularizer":null,"kernel_constraint":null,"bias_constraint":null,"name":"dense_Dense43","trainable":true,"batch_input_shape":[null,100],"dtype":"float32"}},{"class_name":"Dense","config":{"units":100,"activation":"sigmoid","use_bias":true,"kernel_initializer":{"class_name":"VarianceScaling","config":{"scale":1,"mode":"fan_avg","distribution":"normal","seed":null}},"bias_initializer":{"class_name":"Zeros","config":{}},"kernel_regularizer":null,"bias_regularizer":null,"activity_regularizer":null,"kernel_constraint":null,"bias_constraint":null,"name":"dense_Dense44","trainable":true,"batch_input_shape":[null,100],"dtype":"float32"}},{"class_name":"Dense","config":{"units":100,"activation":"sigmoid","use_bias":true,"kernel_initializer":{"class_name":"VarianceScaling","config":{"scale":1,"mode":"fan_avg","distribution":"normal","seed":null}},"bias_initializer":{"class_name":"Zeros","config":{}},"kernel_regularizer":null,"bias_regularizer":null,"activity_regularizer":null,"kernel_constraint":null,"bias_constraint":null,"name":"dense_Dense45","trainable":true,"batch_input_shape":[null,100],"dtype":"float32"}},{"class_name":"Dense","config":{"units":100,"activation":"sigmoid","use_bias":true,"kernel_initializer":{"class_name":"VarianceScaling","config":{"scale":1,"mode":"fan_avg","distribution":"normal","seed":null}},"bias_initializer":{"class_name":"Zeros","config":{}},"kernel_regularizer":null,"bias_regularizer":null,"activity_regularizer":null,"kernel_constraint":null,"bias_constraint":null,"name":"dense_Dense46","trainable":true,"batch_input_shape":[null,100],"dtype":"float32"}},{"class_name":"Dense","config":{"units":100,"activation":"sigmoid","use_bias":true,"kernel_initializer":{"class_name":"VarianceScaling","config":{"scale":1,"mode":"fan_avg","distribution":"normal","seed":null}},"bias_initializer":{"class_name":"Zeros","config":{}},"kernel_regularizer":null,"bias_regularizer":null,"activity_regularizer":null,"kernel_constraint":null,"bias_constraint":null,"name":"dense_Dense47","trainable":true,"batch_input_shape":[null,100],"dtype":"float32"}},{"class_name":"Dense","config":{"units":100,"activation":"sigmoid","use_bias":true,"kernel_initializer":{"class_name":"VarianceScaling","config":{"scale":1,"mode":"fan_avg","distribution":"normal","seed":null}},"bias_initializer":{"class_name":"Zeros","config":{}},"kernel_regularizer":null,"bias_regularizer":null,"activity_regularizer":null,"kernel_constraint":null,"bias_constraint":null,"name":"dense_Dense48","trainable":true,"batch_input_shape":[null,100],"dtype":"float32"}},{"class_name":"Dense","config":{"units":100,"activation":"sigmoid","use_bias":true,"kernel_initializer":{"class_name":"VarianceScaling","config":{"scale":1,"mode":"fan_avg","distribution":"normal","seed":null}},"bias_initializer":{"class_name":"Zeros","config":{}},"kernel_regularizer":null,"bias_regularizer":null,"activity_regularizer":null,"kernel_constraint":null,"bias_constraint":null,"name":"dense_Dense49","trainable":true,"batch_input_shape":[null,100],"dtype":"float32"}},{"class_name":"Dense","config":{"units":100,"activation":"sigmoid","use_bias":true,"kernel_initializer":{"class_name":"VarianceScaling","config":{"scale":1,"mode":"fan_avg","distribution":"normal","seed":null}},"bias_initializer":{"class_name":"Zeros","config":{}},"kernel_regularizer":null,"bias_regularizer":null,"activity_regularizer":null,"kernel_constraint":null,"bias_constraint":null,"name":"dense_Dense50","trainable":true,"batch_input_shape":[null,100],"dtype":"float32"}},{"class_name":"Dense","config":{"units":100,"activation":"sigmoid","use_bias":true,"kernel_initializer":{"class_name":"VarianceScaling","config":{"scale":1,"mode":"fan_avg","distribution":"normal","seed":null}},"bias_initializer":{"class_name":"Zeros","config":{}},"kernel_regularizer":null,"bias_regularizer":null,"activity_regularizer":null,"kernel_constraint":null,"bias_constraint":null,"name":"dense_Dense51","trainable":true,"batch_input_shape":[null,100],"dtype":"float32"}},{"class_name":"Dense","config":{"units":100,"activation":"sigmoid","use_bias":true,"kernel_initializer":{"class_name":"VarianceScaling","config":{"scale":1,"mode":"fan_avg","distribution":"normal","seed":null}},"bias_initializer":{"class_name":"Zeros","config":{}},"kernel_regularizer":null,"bias_regularizer":null,"activity_regularizer":null,"kernel_constraint":null,"bias_constraint":null,"name":"dense_Dense52","trainable":true,"batch_input_shape":[null,100],"dtype":"float32"}},{"class_name":"Dense","config":{"units":100,"activation":"sigmoid","use_bias":true,"kernel_initializer":{"class_name":"VarianceScaling","config":{"scale":1,"mode":"fan_avg","distribution":"normal","seed":null}},"bias_initializer":{"class_name":"Zeros","config":{}},"kernel_regularizer":null,"bias_regularizer":null,"activity_regularizer":null,"kernel_constraint":null,"bias_constraint":null,"name":"dense_Dense53","trainable":true,"batch_input_shape":[null,100],"dtype":"float32"}},{"class_name":"Dense","config":{"units":100,"activation":"sigmoid","use_bias":true,"kernel_initializer":{"class_name":"VarianceScaling","config":{"scale":1,"mode":"fan_avg","distribution":"normal","seed":null}},"bias_initializer":{"class_name":"Zeros","config":{}},"kernel_regularizer":null,"bias_regularizer":null,"activity_regularizer":null,"kernel_constraint":null,"bias_constraint":null,"name":"dense_Dense54","trainable":true,"batch_input_shape":[null,100],"dtype":"float32"}},{"class_name":"Dense","config":{"units":100,"activation":"sigmoid","use_bias":true,"kernel_initializer":{"class_name":"VarianceScaling","config":{"scale":1,"mode":"fan_avg","distribution":"normal","seed":null}},"bias_initializer":{"class_name":"Zeros","config":{}},"kernel_regularizer":null,"bias_regularizer":null,"activity_regularizer":null,"kernel_constraint":null,"bias_constraint":null,"name":"dense_Dense55","trainable":true,"batch_input_shape":[null,100],"dtype":"float32"}},{"class_name":"Dense","config":{"units":100,"activation":"sigmoid","use_bias":true,"kernel_initializer":{"class_name":"VarianceScaling","config":{"scale":1,"mode":"fan_avg","distribution":"normal","seed":null}},"bias_initializer":{"class_name":"Zeros","config":{}},"kernel_regularizer":null,"bias_regularizer":null,"activity_regularizer":null,"kernel_constraint":null,"bias_constraint":null,"name":"dense_Dense56","trainable":true,"batch_input_shape":[null,100],"dtype":"float32"}},{"class_name":"Dense","config":{"units":100,"activation":"sigmoid","use_bias":true,"kernel_initializer":{"class_name":"VarianceScaling","config":{"scale":1,"mode":"fan_avg","distribution":"normal","seed":null}},"bias_initializer":{"class_name":"Zeros","config":{}},"kernel_regularizer":null,"bias_regularizer":null,"activity_regularizer":null,"kernel_constraint":null,"bias_constraint":null,"name":"dense_Dense57","trainable":true,"batch_input_shape":[null,100],"dtype":"float32"}},{"class_name":"Dense","config":{"units":100,"activation":"sigmoid","use_bias":true,"kernel_initializer":{"class_name":"VarianceScaling","config":{"scale":1,"mode":"fan_avg","distribution":"normal","seed":null}},"bias_initializer":{"class_name":"Zeros","config":{}},"kernel_regularizer":null,"bias_regularizer":null,"activity_regularizer":null,"kernel_constraint":null,"bias_constraint":null,"name":"dense_Dense58","trainable":true,"batch_input_shape":[null,100],"dtype":"float32"}},{"class_name":"Dense","config":{"units":100,"activation":"sigmoid","use_bias":true,"kernel_initializer":{"class_name":"VarianceScaling","config":{"scale":1,"mode":"fan_avg","distribution":"normal","seed":null}},"bias_initializer":{"class_name":"Zeros","config":{}},"kernel_regularizer":null,"bias_regularizer":null,"activity_regularizer":null,"kernel_constraint":null,"bias_constraint":null,"name":"dense_Dense59","trainable":true,"batch_input_shape":[null,100],"dtype":"float32"}},{"class_name":"Dense","config":{"units":100,"activation":"sigmoid","use_bias":true,"kernel_initializer":{"class_name":"VarianceScaling","config":{"scale":1,"mode":"fan_avg","distribution":"normal","seed":null}},"bias_initializer":{"class_name":"Zeros","config":{}},"kernel_regularizer":null,"bias_regularizer":null,"activity_regularizer":null,"kernel_constraint":null,"bias_constraint":null,"name":"dense_Dense60","trainable":true,"batch_input_shape":[null,100],"dtype":"float32"}},{"class_name":"Dense","config":{"units":100,"activation":"sigmoid","use_bias":true,"kernel_initializer":{"class_name":"VarianceScaling","config":{"scale":1,"mode":"fan_avg","distribution":"normal","seed":null}},"bias_initializer":{"class_name":"Zeros","config":{}},"kernel_regularizer":null,"bias_regularizer":null,"activity_regularizer":null,"kernel_constraint":null,"bias_constraint":null,"name":"dense_Dense61","trainable":true,"batch_input_shape":[null,100],"dtype":"float32"}},{"class_name":"Dense","config":{"units":100,"activation":"sigmoid","use_bias":true,"kernel_initializer":{"class_name":"VarianceScaling","config":{"scale":1,"mode":"fan_avg","distribution":"normal","seed":null}},"bias_initializer":{"class_name":"Zeros","config":{}},"kernel_regularizer":null,"bias_regularizer":null,"activity_regularizer":null,"kernel_constraint":null,"bias_constraint":null,"name":"dense_Dense62","trainable":true,"batch_input_shape":[null,100],"dtype":"float32"}},{"class_name":"Dense","config":{"units":100,"activation":"sigmoid","use_bias":true,"kernel_initializer":{"class_name":"VarianceScaling","config":{"scale":1,"mode":"fan_avg","distribution":"normal","seed":null}},"bias_initializer":{"class_name":"Zeros","config":{}},"kernel_regularizer":null,"bias_regularizer":null,"activity_regularizer":null,"kernel_constraint":null,"bias_constraint":null,"name":"dense_Dense63","trainable":true,"batch_input_shape":[null,100],"dtype":"float32"}},{"class_name":"Dense","config":{"units":100,"activation":"sigmoid","use_bias":true,"kernel_initializer":{"class_name":"VarianceScaling","config":{"scale":1,"mode":"fan_avg","distribution":"normal","seed":null}},"bias_initializer":{"class_name":"Zeros","config":{}},"kernel_regularizer":null,"bias_regularizer":null,"activity_regularizer":null,"kernel_constraint":null,"bias_constraint":null,"name":"dense_Dense64","trainable":true,"batch_input_shape":[null,100],"dtype":"float32"}},{"class_name":"Dense","config":{"units":100,"activation":"sigmoid","use_bias":true,"kernel_initializer":{"class_name":"VarianceScaling","config":{"scale":1,"mode":"fan_avg","distribution":"normal","seed":null}},"bias_initializer":{"class_name":"Zeros","config":{}},"kernel_regularizer":null,"bias_regularizer":null,"activity_regularizer":null,"kernel_constraint":null,"bias_constraint":null,"name":"dense_Dense65","trainable":true,"batch_input_shape":[null,100],"dtype":"float32"}},{"class_name":"Dense","config":{"units":100,"activation":"sigmoid","use_bias":true,"kernel_initializer":{"class_name":"VarianceScaling","config":{"scale":1,"mode":"fan_avg","distribution":"normal","seed":null}},"bias_initializer":{"class_name":"Zeros","config":{}},"kernel_regularizer":null,"bias_regularizer":null,"activity_regularizer":null,"kernel_constraint":null,"bias_constraint":null,"name":"dense_Dense66","trainable":true,"batch_input_shape":[null,100],"dtype":"float32"}},{"class_name":"Dense","config":{"units":100,"activation":"sigmoid","use_bias":true,"kernel_initializer":{"class_name":"VarianceScaling","config":{"scale":1,"mode":"fan_avg","distribution":"normal","seed":null}},"bias_initializer":{"class_name":"Zeros","config":{}},"kernel_regularizer":null,"bias_regularizer":null,"activity_regularizer":null,"kernel_constraint":null,"bias_constraint":null,"name":"dense_Dense67","trainable":true,"batch_input_shape":[null,100],"dtype":"float32"}},{"class_name":"Dense","config":{"units":100,"activation":"sigmoid","use_bias":true,"kernel_initializer":{"class_name":"VarianceScaling","config":{"scale":1,"mode":"fan_avg","distribution":"normal","seed":null}},"bias_initializer":{"class_name":"Zeros","config":{}},"kernel_regularizer":null,"bias_regularizer":null,"activity_regularizer":null,"kernel_constraint":null,"bias_constraint":null,"name":"dense_Dense68","trainable":true,"batch_input_shape":[null,100],"dtype":"float32"}},{"class_name":"Dense","config":{"units":100,"activation":"sigmoid","use_bias":true,"kernel_initializer":{"class_name":"VarianceScaling","config":{"scale":1,"mode":"fan_avg","distribution":"normal","seed":null}},"bias_initializer":{"class_name":"Zeros","config":{}},"kernel_regularizer":null,"bias_regularizer":null,"activity_regularizer":null,"kernel_constraint":null,"bias_constraint":null,"name":"dense_Dense69","trainable":true,"batch_input_shape":[null,100],"dtype":"float32"}},{"class_name":"Dense","config":{"units":100,"activation":"sigmoid","use_bias":true,"kernel_initializer":{"class_name":"VarianceScaling","config":{"scale":1,"mode":"fan_avg","distribution":"normal","seed":null}},"bias_initializer":{"class_name":"Zeros","config":{}},"kernel_regularizer":null,"bias_regularizer":null,"activity_regularizer":null,"kernel_constraint":null,"bias_constraint":null,"name":"dense_Dense70","trainable":true,"batch_input_shape":[null,100],"dtype":"float32"}},{"class_name":"Dense","config":{"units":100,"activation":"sigmoid","use_bias":true,"kernel_initializer":{"class_name":"VarianceScaling","config":{"scale":1,"mode":"fan_avg","distribution":"normal","seed":null}},"bias_initializer":{"class_name":"Zeros","config":{}},"kernel_regularizer":null,"bias_regularizer":null,"activity_regularizer":null,"kernel_constraint":null,"bias_constraint":null,"name":"dense_Dense71","trainable":true,"batch_input_shape":[null,100],"dtype":"float32"}},{"class_name":"Dense","config":{"units":100,"activation":"sigmoid","use_bias":true,"kernel_initializer":{"class_name":"VarianceScaling","config":{"scale":1,"mode":"fan_avg","distribution":"normal","seed":null}},"bias_initializer":{"class_name":"Zeros","config":{}},"kernel_regularizer":null,"bias_regularizer":null,"activity_regularizer":null,"kernel_constraint":null,"bias_constraint":null,"name":"dense_Dense72","trainable":true,"batch_input_shape":[null,100],"dtype":"float32"}},{"class_name":"Dense","config":{"units":100,"activation":"sigmoid","use_bias":true,"kernel_initializer":{"class_name":"VarianceScaling","config":{"scale":1,"mode":"fan_avg","distribution":"normal","seed":null}},"bias_initializer":{"class_name":"Zeros","config":{}},"kernel_regularizer":null,"bias_regularizer":null,"activity_regularizer":null,"kernel_constraint":null,"bias_constraint":null,"name":"dense_Dense73","trainable":true,"batch_input_shape":[null,100],"dtype":"float32"}},{"class_name":"Dense","config":{"units":100,"activation":"sigmoid","use_bias":true,"kernel_initializer":{"class_name":"VarianceScaling","config":{"scale":1,"mode":"fan_avg","distribution":"normal","seed":null}},"bias_initializer":{"class_name":"Zeros","config":{}},"kernel_regularizer":null,"bias_regularizer":null,"activity_regularizer":null,"kernel_constraint":null,"bias_constraint":null,"name":"dense_Dense74","trainable":true,"batch_input_shape":[null,100],"dtype":"float32"}},{"class_name":"Dense","config":{"units":100,"activation":"sigmoid","use_bias":true,"kernel_initializer":{"class_name":"VarianceScaling","config":{"scale":1,"mode":"fan_avg","distribution":"normal","seed":null}},"bias_initializer":{"class_name":"Zeros","config":{}},"kernel_regularizer":null,"bias_regularizer":null,"activity_regularizer":null,"kernel_constraint":null,"bias_constraint":null,"name":"dense_Dense75","trainable":true,"batch_input_shape":[null,100],"dtype":"float32"}},{"class_name":"Dense","config":{"units":100,"activation":"sigmoid","use_bias":true,"kernel_initializer":{"class_name":"VarianceScaling","config":{"scale":1,"mode":"fan_avg","distribution":"normal","seed":null}},"bias_initializer":{"class_name":"Zeros","config":{}},"kernel_regularizer":null,"bias_regularizer":null,"activity_regularizer":null,"kernel_constraint":null,"bias_constraint":null,"name":"dense_Dense76","trainable":true,"batch_input_shape":[null,100],"dtype":"float32"}},{"class_name":"Dense","config":{"units":100,"activation":"sigmoid","use_bias":true,"kernel_initializer":{"class_name":"VarianceScaling","config":{"scale":1,"mode":"fan_avg","distribution":"normal","seed":null}},"bias_initializer":{"class_name":"Zeros","config":{}},"kernel_regularizer":null,"bias_regularizer":null,"activity_regularizer":null,"kernel_constraint":null,"bias_constraint":null,"name":"dense_Dense77","trainable":true,"batch_input_shape":[null,100],"dtype":"float32"}},{"class_name":"Dense","config":{"units":100,"activation":"sigmoid","use_bias":true,"kernel_initializer":{"class_name":"VarianceScaling","config":{"scale":1,"mode":"fan_avg","distribution":"normal","seed":null}},"bias_initializer":{"class_name":"Zeros","config":{}},"kernel_regularizer":null,"bias_regularizer":null,"activity_regularizer":null,"kernel_constraint":null,"bias_constraint":null,"name":"dense_Dense78","trainable":true,"batch_input_shape":[null,100],"dtype":"float32"}},{"class_name":"Dense","config":{"units":100,"activation":"sigmoid","use_bias":true,"kernel_initializer":{"class_name":"VarianceScaling","config":{"scale":1,"mode":"fan_avg","distribution":"normal","seed":null}},"bias_initializer":{"class_name":"Zeros","config":{}},"kernel_regularizer":null,"bias_regularizer":null,"activity_regularizer":null,"kernel_constraint":null,"bias_constraint":null,"name":"dense_Dense79","trainable":true,"batch_input_shape":[null,100],"dtype":"float32"}},{"class_name":"Dense","config":{"units":100,"activation":"sigmoid","use_bias":true,"kernel_initializer":{"class_name":"VarianceScaling","config":{"scale":1,"mode":"fan_avg","distribution":"normal","seed":null}},"bias_initializer":{"class_name":"Zeros","config":{}},"kernel_regularizer":null,"bias_regularizer":null,"activity_regularizer":null,"kernel_constraint":null,"bias_constraint":null,"name":"dense_Dense80","trainable":true,"batch_input_shape":[null,100],"dtype":"float32"}},{"class_name":"Dense","config":{"units":100,"activation":"sigmoid","use_bias":true,"kernel_initializer":{"class_name":"VarianceScaling","config":{"scale":1,"mode":"fan_avg","distribution":"normal","seed":null}},"bias_initializer":{"class_name":"Zeros","config":{}},"kernel_regularizer":null,"bias_regularizer":null,"activity_regularizer":null,"kernel_constraint":null,"bias_constraint":null,"name":"dense_Dense81","trainable":true,"batch_input_shape":[null,100],"dtype":"float32"}},{"class_name":"Dense","config":{"units":100,"activation":"sigmoid","use_bias":true,"kernel_initializer":{"class_name":"VarianceScaling","config":{"scale":1,"mode":"fan_avg","distribution":"normal","seed":null}},"bias_initializer":{"class_name":"Zeros","config":{}},"kernel_regularizer":null,"bias_regularizer":null,"activity_regularizer":null,"kernel_constraint":null,"bias_constraint":null,"name":"dense_Dense82","trainable":true,"batch_input_shape":[null,100],"dtype":"float32"}},{"class_name":"Dense","config":{"units":100,"activation":"sigmoid","use_bias":true,"kernel_initializer":{"class_name":"VarianceScaling","config":{"scale":1,"mode":"fan_avg","distribution":"normal","seed":null}},"bias_initializer":{"class_name":"Zeros","config":{}},"kernel_regularizer":null,"bias_regularizer":null,"activity_regularizer":null,"kernel_constraint":null,"bias_constraint":null,"name":"dense_Dense83","trainable":true,"batch_input_shape":[null,100],"dtype":"float32"}},{"class_name":"Dense","config":{"units":100,"activation":"sigmoid","use_bias":true,"kernel_initializer":{"class_name":"VarianceScaling","config":{"scale":1,"mode":"fan_avg","distribution":"normal","seed":null}},"bias_initializer":{"class_name":"Zeros","config":{}},"kernel_regularizer":null,"bias_regularizer":null,"activity_regularizer":null,"kernel_constraint":null,"bias_constraint":null,"name":"dense_Dense84","trainable":true,"batch_input_shape":[null,100],"dtype":"float32"}},{"class_name":"Dense","config":{"units":100,"activation":"sigmoid","use_bias":true,"kernel_initializer":{"class_name":"VarianceScaling","config":{"scale":1,"mode":"fan_avg","distribution":"normal","seed":null}},"bias_initializer":{"class_name":"Zeros","config":{}},"kernel_regularizer":null,"bias_regularizer":null,"activity_regularizer":null,"kernel_constraint":null,"bias_constraint":null,"name":"dense_Dense85","trainable":true,"batch_input_shape":[null,100],"dtype":"float32"}},{"class_name":"Dense","config":{"units":100,"activation":"sigmoid","use_bias":true,"kernel_initializer":{"class_name":"VarianceScaling","config":{"scale":1,"mode":"fan_avg","distribution":"normal","seed":null}},"bias_initializer":{"class_name":"Zeros","config":{}},"kernel_regularizer":null,"bias_regularizer":null,"activity_regularizer":null,"kernel_constraint":null,"bias_constraint":null,"name":"dense_Dense86","trainable":true,"batch_input_shape":[null,100],"dtype":"float32"}},{"class_name":"Dense","config":{"units":100,"activation":"sigmoid","use_bias":true,"kernel_initializer":{"class_name":"VarianceScaling","config":{"scale":1,"mode":"fan_avg","distribution":"normal","seed":null}},"bias_initializer":{"class_name":"Zeros","config":{}},"kernel_regularizer":null,"bias_regularizer":null,"activity_regularizer":null,"kernel_constraint":null,"bias_constraint":null,"name":"dense_Dense87","trainable":true,"batch_input_shape":[null,100],"dtype":"float32"}},{"class_name":"Dense","config":{"units":100,"activation":"sigmoid","use_bias":true,"kernel_initializer":{"class_name":"VarianceScaling","config":{"scale":1,"mode":"fan_avg","distribution":"normal","seed":null}},"bias_initializer":{"class_name":"Zeros","config":{}},"kernel_regularizer":null,"bias_regularizer":null,"activity_regularizer":null,"kernel_constraint":null,"bias_constraint":null,"name":"dense_Dense88","trainable":true,"batch_input_shape":[null,100],"dtype":"float32"}},{"class_name":"Dense","config":{"units":100,"activation":"sigmoid","use_bias":true,"kernel_initializer":{"class_name":"VarianceScaling","config":{"scale":1,"mode":"fan_avg","distribution":"normal","seed":null}},"bias_initializer":{"class_name":"Zeros","config":{}},"kernel_regularizer":null,"bias_regularizer":null,"activity_regularizer":null,"kernel_constraint":null,"bias_constraint":null,"name":"dense_Dense89","trainable":true,"batch_input_shape":[null,100],"dtype":"float32"}},{"class_name":"Dense","config":{"units":100,"activation":"sigmoid","use_bias":true,"kernel_initializer":{"class_name":"VarianceScaling","config":{"scale":1,"mode":"fan_avg","distribution":"normal","seed":null}},"bias_initializer":{"class_name":"Zeros","config":{}},"kernel_regularizer":null,"bias_regularizer":null,"activity_regularizer":null,"kernel_constraint":null,"bias_constraint":null,"name":"dense_Dense90","trainable":true,"batch_input_shape":[null,100],"dtype":"float32"}},{"class_name":"Dense","config":{"units":100,"activation":"sigmoid","use_bias":true,"kernel_initializer":{"class_name":"VarianceScaling","config":{"scale":1,"mode":"fan_avg","distribution":"normal","seed":null}},"bias_initializer":{"class_name":"Zeros","config":{}},"kernel_regularizer":null,"bias_regularizer":null,"activity_regularizer":null,"kernel_constraint":null,"bias_constraint":null,"name":"dense_Dense91","trainable":true,"batch_input_shape":[null,100],"dtype":"float32"}},{"class_name":"Dense","config":{"units":100,"activation":"sigmoid","use_bias":true,"kernel_initializer":{"class_name":"VarianceScaling","config":{"scale":1,"mode":"fan_avg","distribution":"normal","seed":null}},"bias_initializer":{"class_name":"Zeros","config":{}},"kernel_regularizer":null,"bias_regularizer":null,"activity_regularizer":null,"kernel_constraint":null,"bias_constraint":null,"name":"dense_Dense92","trainable":true,"batch_input_shape":[null,100],"dtype":"float32"}},{"class_name":"Dense","config":{"units":100,"activation":"sigmoid","use_bias":true,"kernel_initializer":{"class_name":"VarianceScaling","config":{"scale":1,"mode":"fan_avg","distribution":"normal","seed":null}},"bias_initializer":{"class_name":"Zeros","config":{}},"kernel_regularizer":null,"bias_regularizer":null,"activity_regularizer":null,"kernel_constraint":null,"bias_constraint":null,"name":"dense_Dense93","trainable":true,"batch_input_shape":[null,100],"dtype":"float32"}},{"class_name":"Dense","config":{"units":100,"activation":"sigmoid","use_bias":true,"kernel_initializer":{"class_name":"VarianceScaling","config":{"scale":1,"mode":"fan_avg","distribution":"normal","seed":null}},"bias_initializer":{"class_name":"Zeros","config":{}},"kernel_regularizer":null,"bias_regularizer":null,"activity_regularizer":null,"kernel_constraint":null,"bias_constraint":null,"name":"dense_Dense94","trainable":true,"batch_input_shape":[null,100],"dtype":"float32"}},{"class_name":"Dense","config":{"units":100,"activation":"sigmoid","use_bias":true,"kernel_initializer":{"class_name":"VarianceScaling","config":{"scale":1,"mode":"fan_avg","distribution":"normal","seed":null}},"bias_initializer":{"class_name":"Zeros","config":{}},"kernel_regularizer":null,"bias_regularizer":null,"activity_regularizer":null,"kernel_constraint":null,"bias_constraint":null,"name":"dense_Dense95","trainable":true,"batch_input_shape":[null,100],"dtype":"float32"}},{"class_name":"Dense","config":{"units":100,"activation":"sigmoid","use_bias":true,"kernel_initializer":{"class_name":"VarianceScaling","config":{"scale":1,"mode":"fan_avg","distribution":"normal","seed":null}},"bias_initializer":{"class_name":"Zeros","config":{}},"kernel_regularizer":null,"bias_regularizer":null,"activity_regularizer":null,"kernel_constraint":null,"bias_constraint":null,"name":"dense_Dense96","trainable":true,"batch_input_shape":[null,100],"dtype":"float32"}},{"class_name":"Dense","config":{"units":100,"activation":"sigmoid","use_bias":true,"kernel_initializer":{"class_name":"VarianceScaling","config":{"scale":1,"mode":"fan_avg","distribution":"normal","seed":null}},"bias_initializer":{"class_name":"Zeros","config":{}},"kernel_regularizer":null,"bias_regularizer":null,"activity_regularizer":null,"kernel_constraint":null,"bias_constraint":null,"name":"dense_Dense97","trainable":true,"batch_input_shape":[null,100],"dtype":"float32"}},{"class_name":"Dense","config":{"units":100,"activation":"sigmoid","use_bias":true,"kernel_initializer":{"class_name":"VarianceScaling","config":{"scale":1,"mode":"fan_avg","distribution":"normal","seed":null}},"bias_initializer":{"class_name":"Zeros","config":{}},"kernel_regularizer":null,"bias_regularizer":null,"activity_regularizer":null,"kernel_constraint":null,"bias_constraint":null,"name":"dense_Dense98","trainable":true,"batch_input_shape":[null,100],"dtype":"float32"}},{"class_name":"Dense","config":{"units":100,"activation":"sigmoid","use_bias":true,"kernel_initializer":{"class_name":"VarianceScaling","config":{"scale":1,"mode":"fan_avg","distribution":"normal","seed":null}},"bias_initializer":{"class_name":"Zeros","config":{}},"kernel_regularizer":null,"bias_regularizer":null,"activity_regularizer":null,"kernel_constraint":null,"bias_constraint":null,"name":"dense_Dense99","trainable":true,"batch_input_shape":[null,100],"dtype":"float32"}},{"class_name":"Dense","config":{"units":100,"activation":"sigmoid","use_bias":true,"kernel_initializer":{"class_name":"VarianceScaling","config":{"scale":1,"mode":"fan_avg","distribution":"normal","seed":null}},"bias_initializer":{"class_name":"Zeros","config":{}},"kernel_regularizer":null,"bias_regularizer":null,"activity_regularizer":null,"kernel_constraint":null,"bias_constraint":null,"name":"dense_Dense100","trainable":true,"batch_input_shape":[null,100],"dtype":"float32"}},{"class_name":"Dense","config":{"units":100,"activation":"sigmoid","use_bias":true,"kernel_initializer":{"class_name":"VarianceScaling","config":{"scale":1,"mode":"fan_avg","distribution":"normal","seed":null}},"bias_initializer":{"class_name":"Zeros","config":{}},"kernel_regularizer":null,"bias_regularizer":null,"activity_regularizer":null,"kernel_constraint":null,"bias_constraint":null,"name":"dense_Dense101","trainable":true,"batch_input_shape":[null,100],"dtype":"float32"}},{"class_name":"Dense","config":{"units":100,"activation":"sigmoid","use_bias":true,"kernel_initializer":{"class_name":"VarianceScaling","config":{"scale":1,"mode":"fan_avg","distribution":"normal","seed":null}},"bias_initializer":{"class_name":"Zeros","config":{}},"kernel_regularizer":null,"bias_regularizer":null,"activity_regularizer":null,"kernel_constraint":null,"bias_constraint":null,"name":"dense_Dense102","trainable":true,"batch_input_shape":[null,100],"dtype":"float32"}},{"class_name":"Dense","config":{"units":100,"activation":"sigmoid","use_bias":true,"kernel_initializer":{"class_name":"VarianceScaling","config":{"scale":1,"mode":"fan_avg","distribution":"normal","seed":null}},"bias_initializer":{"class_name":"Zeros","config":{}},"kernel_regularizer":null,"bias_regularizer":null,"activity_regularizer":null,"kernel_constraint":null,"bias_constraint":null,"name":"dense_Dense103","trainable":true,"batch_input_shape":[null,100],"dtype":"float32"}},{"class_name":"Dense","config":{"units":100,"activation":"sigmoid","use_bias":true,"kernel_initializer":{"class_name":"VarianceScaling","config":{"scale":1,"mode":"fan_avg","distribution":"normal","seed":null}},"bias_initializer":{"class_name":"Zeros","config":{}},"kernel_regularizer":null,"bias_regularizer":null,"activity_regularizer":null,"kernel_constraint":null,"bias_constraint":null,"name":"dense_Dense104","trainable":true,"batch_input_shape":[null,100],"dtype":"float32"}},{"class_name":"Dense","config":{"units":100,"activation":"sigmoid","use_bias":true,"kernel_initializer":{"class_name":"VarianceScaling","config":{"scale":1,"mode":"fan_avg","distribution":"normal","seed":null}},"bias_initializer":{"class_name":"Zeros","config":{}},"kernel_regularizer":null,"bias_regularizer":null,"activity_regularizer":null,"kernel_constraint":null,"bias_constraint":null,"name":"dense_Dense105","trainable":true,"batch_input_shape":[null,100],"dtype":"float32"}},{"class_name":"Dense","config":{"units":100,"activation":"sigmoid","use_bias":true,"kernel_initializer":{"class_name":"VarianceScaling","config":{"scale":1,"mode":"fan_avg","distribution":"normal","seed":null}},"bias_initializer":{"class_name":"Zeros","config":{}},"kernel_regularizer":null,"bias_regularizer":null,"activity_regularizer":null,"kernel_constraint":null,"bias_constraint":null,"name":"dense_Dense106","trainable":true,"batch_input_shape":[null,100],"dtype":"float32"}},{"class_name":"Dense","config":{"units":100,"activation":"sigmoid","use_bias":true,"kernel_initializer":{"class_name":"VarianceScaling","config":{"scale":1,"mode":"fan_avg","distribution":"normal","seed":null}},"bias_initializer":{"class_name":"Zeros","config":{}},"kernel_regularizer":null,"bias_regularizer":null,"activity_regularizer":null,"kernel_constraint":null,"bias_constraint":null,"name":"dense_Dense107","trainable":true,"batch_input_shape":[null,100],"dtype":"float32"}},{"class_name":"Dense","config":{"units":100,"activation":"sigmoid","use_bias":true,"kernel_initializer":{"class_name":"VarianceScaling","config":{"scale":1,"mode":"fan_avg","distribution":"normal","seed":null}},"bias_initializer":{"class_name":"Zeros","config":{}},"kernel_regularizer":null,"bias_regularizer":null,"activity_regularizer":null,"kernel_constraint":null,"bias_constraint":null,"name":"dense_Dense108","trainable":true,"batch_input_shape":[null,100],"dtype":"float32"}},{"class_name":"Dense","config":{"units":100,"activation":"sigmoid","use_bias":true,"kernel_initializer":{"class_name":"VarianceScaling","config":{"scale":1,"mode":"fan_avg","distribution":"normal","seed":null}},"bias_initializer":{"class_name":"Zeros","config":{}},"kernel_regularizer":null,"bias_regularizer":null,"activity_regularizer":null,"kernel_constraint":null,"bias_constraint":null,"name":"dense_Dense109","trainable":true,"batch_input_shape":[null,100],"dtype":"float32"}},{"class_name":"Dense","config":{"units":100,"activation":"sigmoid","use_bias":true,"kernel_initializer":{"class_name":"VarianceScaling","config":{"scale":1,"mode":"fan_avg","distribution":"normal","seed":null}},"bias_initializer":{"class_name":"Zeros","config":{}},"kernel_regularizer":null,"bias_regularizer":null,"activity_regularizer":null,"kernel_constraint":null,"bias_constraint":null,"name":"dense_Dense110","trainable":true,"batch_input_shape":[null,100],"dtype":"float32"}},{"class_name":"Dense","config":{"units":100,"activation":"sigmoid","use_bias":true,"kernel_initializer":{"class_name":"VarianceScaling","config":{"scale":1,"mode":"fan_avg","distribution":"normal","seed":null}},"bias_initializer":{"class_name":"Zeros","config":{}},"kernel_regularizer":null,"bias_regularizer":null,"activity_regularizer":null,"kernel_constraint":null,"bias_constraint":null,"name":"dense_Dense111","trainable":true,"batch_input_shape":[null,100],"dtype":"float32"}},{"class_name":"Dense","config":{"units":100,"activation":"sigmoid","use_bias":true,"kernel_initializer":{"class_name":"VarianceScaling","config":{"scale":1,"mode":"fan_avg","distribution":"normal","seed":null}},"bias_initializer":{"class_name":"Zeros","config":{}},"kernel_regularizer":null,"bias_regularizer":null,"activity_regularizer":null,"kernel_constraint":null,"bias_constraint":null,"name":"dense_Dense112","trainable":true,"batch_input_shape":[null,100],"dtype":"float32"}},{"class_name":"Dense","config":{"units":100,"activation":"sigmoid","use_bias":true,"kernel_initializer":{"class_name":"VarianceScaling","config":{"scale":1,"mode":"fan_avg","distribution":"normal","seed":null}},"bias_initializer":{"class_name":"Zeros","config":{}},"kernel_regularizer":null,"bias_regularizer":null,"activity_regularizer":null,"kernel_constraint":null,"bias_constraint":null,"name":"dense_Dense113","trainable":true,"batch_input_shape":[null,100],"dtype":"float32"}},{"class_name":"Dense","config":{"units":100,"activation":"sigmoid","use_bias":true,"kernel_initializer":{"class_name":"VarianceScaling","config":{"scale":1,"mode":"fan_avg","distribution":"normal","seed":null}},"bias_initializer":{"class_name":"Zeros","config":{}},"kernel_regularizer":null,"bias_regularizer":null,"activity_regularizer":null,"kernel_constraint":null,"bias_constraint":null,"name":"dense_Dense114","trainable":true,"batch_input_shape":[null,100],"dtype":"float32"}},{"class_name":"Dense","config":{"units":100,"activation":"sigmoid","use_bias":true,"kernel_initializer":{"class_name":"VarianceScaling","config":{"scale":1,"mode":"fan_avg","distribution":"normal","seed":null}},"bias_initializer":{"class_name":"Zeros","config":{}},"kernel_regularizer":null,"bias_regularizer":null,"activity_regularizer":null,"kernel_constraint":null,"bias_constraint":null,"name":"dense_Dense115","trainable":true,"batch_input_shape":[null,100],"dtype":"float32"}},{"class_name":"Dense","config":{"units":100,"activation":"sigmoid","use_bias":true,"kernel_initializer":{"class_name":"VarianceScaling","config":{"scale":1,"mode":"fan_avg","distribution":"normal","seed":null}},"bias_initializer":{"class_name":"Zeros","config":{}},"kernel_regularizer":null,"bias_regularizer":null,"activity_regularizer":null,"kernel_constraint":null,"bias_constraint":null,"name":"dense_Dense116","trainable":true,"batch_input_shape":[null,100],"dtype":"float32"}},{"class_name":"Dense","config":{"units":100,"activation":"sigmoid","use_bias":true,"kernel_initializer":{"class_name":"VarianceScaling","config":{"scale":1,"mode":"fan_avg","distribution":"normal","seed":null}},"bias_initializer":{"class_name":"Zeros","config":{}},"kernel_regularizer":null,"bias_regularizer":null,"activity_regularizer":null,"kernel_constraint":null,"bias_constraint":null,"name":"dense_Dense117","trainable":true,"batch_input_shape":[null,100],"dtype":"float32"}},{"class_name":"Dense","config":{"units":100,"activation":"sigmoid","use_bias":true,"kernel_initializer":{"class_name":"VarianceScaling","config":{"scale":1,"mode":"fan_avg","distribution":"normal","seed":null}},"bias_initializer":{"class_name":"Zeros","config":{}},"kernel_regularizer":null,"bias_regularizer":null,"activity_regularizer":null,"kernel_constraint":null,"bias_constraint":null,"name":"dense_Dense118","trainable":true,"batch_input_shape":[null,100],"dtype":"float32"}},{"class_name":"Dense","config":{"units":100,"activation":"sigmoid","use_bias":true,"kernel_initializer":{"class_name":"VarianceScaling","config":{"scale":1,"mode":"fan_avg","distribution":"normal","seed":null}},"bias_initializer":{"class_name":"Zeros","config":{}},"kernel_regularizer":null,"bias_regularizer":null,"activity_regularizer":null,"kernel_constraint":null,"bias_constraint":null,"name":"dense_Dense119","trainable":true,"batch_input_shape":[null,100],"dtype":"float32"}},{"class_name":"Dense","config":{"units":100,"activation":"sigmoid","use_bias":true,"kernel_initializer":{"class_name":"VarianceScaling","config":{"scale":1,"mode":"fan_avg","distribution":"normal","seed":null}},"bias_initializer":{"class_name":"Zeros","config":{}},"kernel_regularizer":null,"bias_regularizer":null,"activity_regularizer":null,"kernel_constraint":null,"bias_constraint":null,"name":"dense_Dense120","trainable":true,"batch_input_shape":[null,100],"dtype":"float32"}},{"class_name":"Dense","config":{"units":100,"activation":"sigmoid","use_bias":true,"kernel_initializer":{"class_name":"VarianceScaling","config":{"scale":1,"mode":"fan_avg","distribution":"normal","seed":null}},"bias_initializer":{"class_name":"Zeros","config":{}},"kernel_regularizer":null,"bias_regularizer":null,"activity_regularizer":null,"kernel_constraint":null,"bias_constraint":null,"name":"dense_Dense121","trainable":true,"batch_input_shape":[null,100],"dtype":"float32"}},{"class_name":"Dense","config":{"units":100,"activation":"sigmoid","use_bias":true,"kernel_initializer":{"class_name":"VarianceScaling","config":{"scale":1,"mode":"fan_avg","distribution":"normal","seed":null}},"bias_initializer":{"class_name":"Zeros","config":{}},"kernel_regularizer":null,"bias_regularizer":null,"activity_regularizer":null,"kernel_constraint":null,"bias_constraint":null,"name":"dense_Dense122","trainable":true,"batch_input_shape":[null,100],"dtype":"float32"}},{"class_name":"Dense","config":{"units":100,"activation":"sigmoid","use_bias":true,"kernel_initializer":{"class_name":"VarianceScaling","config":{"scale":1,"mode":"fan_avg","distribution":"normal","seed":null}},"bias_initializer":{"class_name":"Zeros","config":{}},"kernel_regularizer":null,"bias_regularizer":null,"activity_regularizer":null,"kernel_constraint":null,"bias_constraint":null,"name":"dense_Dense123","trainable":true,"batch_input_shape":[null,100],"dtype":"float32"}},{"class_name":"Dense","config":{"units":100,"activation":"sigmoid","use_bias":true,"kernel_initializer":{"class_name":"VarianceScaling","config":{"scale":1,"mode":"fan_avg","distribution":"normal","seed":null}},"bias_initializer":{"class_name":"Zeros","config":{}},"kernel_regularizer":null,"bias_regularizer":null,"activity_regularizer":null,"kernel_constraint":null,"bias_constraint":null,"name":"dense_Dense124","trainable":true,"batch_input_shape":[null,100],"dtype":"float32"}},{"class_name":"Dense","config":{"units":100,"activation":"sigmoid","use_bias":true,"kernel_initializer":{"class_name":"VarianceScaling","config":{"scale":1,"mode":"fan_avg","distribution":"normal","seed":null}},"bias_initializer":{"class_name":"Zeros","config":{}},"kernel_regularizer":null,"bias_regularizer":null,"activity_regularizer":null,"kernel_constraint":null,"bias_constraint":null,"name":"dense_Dense125","trainable":true,"batch_input_shape":[null,100],"dtype":"float32"}},{"class_name":"Dense","config":{"units":100,"activation":"sigmoid","use_bias":true,"kernel_initializer":{"class_name":"VarianceScaling","config":{"scale":1,"mode":"fan_avg","distribution":"normal","seed":null}},"bias_initializer":{"class_name":"Zeros","config":{}},"kernel_regularizer":null,"bias_regularizer":null,"activity_regularizer":null,"kernel_constraint":null,"bias_constraint":null,"name":"dense_Dense126","trainable":true,"batch_input_shape":[null,100],"dtype":"float32"}},{"class_name":"Dense","config":{"units":100,"activation":"sigmoid","use_bias":true,"kernel_initializer":{"class_name":"VarianceScaling","config":{"scale":1,"mode":"fan_avg","distribution":"normal","seed":null}},"bias_initializer":{"class_name":"Zeros","config":{}},"kernel_regularizer":null,"bias_regularizer":null,"activity_regularizer":null,"kernel_constraint":null,"bias_constraint":null,"name":"dense_Dense127","trainable":true,"batch_input_shape":[null,100],"dtype":"float32"}},{"class_name":"Dense","config":{"units":100,"activation":"sigmoid","use_bias":true,"kernel_initializer":{"class_name":"VarianceScaling","config":{"scale":1,"mode":"fan_avg","distribution":"normal","seed":null}},"bias_initializer":{"class_name":"Zeros","config":{}},"kernel_regularizer":null,"bias_regularizer":null,"activity_regularizer":null,"kernel_constraint":null,"bias_constraint":null,"name":"dense_Dense128","trainable":true,"batch_input_shape":[null,100],"dtype":"float32"}},{"class_name":"Dense","config":{"units":100,"activation":"sigmoid","use_bias":true,"kernel_initializer":{"class_name":"VarianceScaling","config":{"scale":1,"mode":"fan_avg","distribution":"normal","seed":null}},"bias_initializer":{"class_name":"Zeros","config":{}},"kernel_regularizer":null,"bias_regularizer":null,"activity_regularizer":null,"kernel_constraint":null,"bias_constraint":null,"name":"dense_Dense129","trainable":true,"batch_input_shape":[null,100],"dtype":"float32"}},{"class_name":"Dense","config":{"units":100,"activation":"sigmoid","use_bias":true,"kernel_initializer":{"class_name":"VarianceScaling","config":{"scale":1,"mode":"fan_avg","distribution":"normal","seed":null}},"bias_initializer":{"class_name":"Zeros","config":{}},"kernel_regularizer":null,"bias_regularizer":null,"activity_regularizer":null,"kernel_constraint":null,"bias_constraint":null,"name":"dense_Dense130","trainable":true,"batch_input_shape":[null,100],"dtype":"float32"}},{"class_name":"Dense","config":{"units":100,"activation":"sigmoid","use_bias":true,"kernel_initializer":{"class_name":"VarianceScaling","config":{"scale":1,"mode":"fan_avg","distribution":"normal","seed":null}},"bias_initializer":{"class_name":"Zeros","config":{}},"kernel_regularizer":null,"bias_regularizer":null,"activity_regularizer":null,"kernel_constraint":null,"bias_constraint":null,"name":"dense_Dense131","trainable":true,"batch_input_shape":[null,100],"dtype":"float32"}},{"class_name":"Dense","config":{"units":100,"activation":"sigmoid","use_bias":true,"kernel_initializer":{"class_name":"VarianceScaling","config":{"scale":1,"mode":"fan_avg","distribution":"normal","seed":null}},"bias_initializer":{"class_name":"Zeros","config":{}},"kernel_regularizer":null,"bias_regularizer":null,"activity_regularizer":null,"kernel_constraint":null,"bias_constraint":null,"name":"dense_Dense132","trainable":true,"batch_input_shape":[null,100],"dtype":"float32"}},{"class_name":"Dense","config":{"units":100,"activation":"sigmoid","use_bias":true,"kernel_initializer":{"class_name":"VarianceScaling","config":{"scale":1,"mode":"fan_avg","distribution":"normal","seed":null}},"bias_initializer":{"class_name":"Zeros","config":{}},"kernel_regularizer":null,"bias_regularizer":null,"activity_regularizer":null,"kernel_constraint":null,"bias_constraint":null,"name":"dense_Dense133","trainable":true,"batch_input_shape":[null,100],"dtype":"float32"}},{"class_name":"Dense","config":{"units":100,"activation":"sigmoid","use_bias":true,"kernel_initializer":{"class_name":"VarianceScaling","config":{"scale":1,"mode":"fan_avg","distribution":"normal","seed":null}},"bias_initializer":{"class_name":"Zeros","config":{}},"kernel_regularizer":null,"bias_regularizer":null,"activity_regularizer":null,"kernel_constraint":null,"bias_constraint":null,"name":"dense_Dense134","trainable":true,"batch_input_shape":[null,100],"dtype":"float32"}},{"class_name":"Dense","config":{"units":100,"activation":"sigmoid","use_bias":true,"kernel_initializer":{"class_name":"VarianceScaling","config":{"scale":1,"mode":"fan_avg","distribution":"normal","seed":null}},"bias_initializer":{"class_name":"Zeros","config":{}},"kernel_regularizer":null,"bias_regularizer":null,"activity_regularizer":null,"kernel_constraint":null,"bias_constraint":null,"name":"dense_Dense135","trainable":true,"batch_input_shape":[null,100],"dtype":"float32"}},{"class_name":"Dense","config":{"units":100,"activation":"sigmoid","use_bias":true,"kernel_initializer":{"class_name":"VarianceScaling","config":{"scale":1,"mode":"fan_avg","distribution":"normal","seed":null}},"bias_initializer":{"class_name":"Zeros","config":{}},"kernel_regularizer":null,"bias_regularizer":null,"activity_regularizer":null,"kernel_constraint":null,"bias_constraint":null,"name":"dense_Dense136","trainable":true,"batch_input_shape":[null,100],"dtype":"float32"}},{"class_name":"Dense","config":{"units":100,"activation":"sigmoid","use_bias":true,"kernel_initializer":{"class_name":"VarianceScaling","config":{"scale":1,"mode":"fan_avg","distribution":"normal","seed":null}},"bias_initializer":{"class_name":"Zeros","config":{}},"kernel_regularizer":null,"bias_regularizer":null,"activity_regularizer":null,"kernel_constraint":null,"bias_constraint":null,"name":"dense_Dense137","trainable":true,"batch_input_shape":[null,100],"dtype":"float32"}},{"class_name":"Dense","config":{"units":100,"activation":"sigmoid","use_bias":true,"kernel_initializer":{"class_name":"VarianceScaling","config":{"scale":1,"mode":"fan_avg","distribution":"normal","seed":null}},"bias_initializer":{"class_name":"Zeros","config":{}},"kernel_regularizer":null,"bias_regularizer":null,"activity_regularizer":null,"kernel_constraint":null,"bias_constraint":null,"name":"dense_Dense138","trainable":true,"batch_input_shape":[null,100],"dtype":"float32"}},{"class_name":"Dense","config":{"units":100,"activation":"sigmoid","use_bias":true,"kernel_initializer":{"class_name":"VarianceScaling","config":{"scale":1,"mode":"fan_avg","distribution":"normal","seed":null}},"bias_initializer":{"class_name":"Zeros","config":{}},"kernel_regularizer":null,"bias_regularizer":null,"activity_regularizer":null,"kernel_constraint":null,"bias_constraint":null,"name":"dense_Dense139","trainable":true,"batch_input_shape":[null,100],"dtype":"float32"}},{"class_name":"Dense","config":{"units":100,"activation":"sigmoid","use_bias":true,"kernel_initializer":{"class_name":"VarianceScaling","config":{"scale":1,"mode":"fan_avg","distribution":"normal","seed":null}},"bias_initializer":{"class_name":"Zeros","config":{}},"kernel_regularizer":null,"bias_regularizer":null,"activity_regularizer":null,"kernel_constraint":null,"bias_constraint":null,"name":"dense_Dense140","trainable":true,"batch_input_shape":[null,100],"dtype":"float32"}},{"class_name":"Dense","config":{"units":100,"activation":"sigmoid","use_bias":true,"kernel_initializer":{"class_name":"VarianceScaling","config":{"scale":1,"mode":"fan_avg","distribution":"normal","seed":null}},"bias_initializer":{"class_name":"Zeros","config":{}},"kernel_regularizer":null,"bias_regularizer":null,"activity_regularizer":null,"kernel_constraint":null,"bias_constraint":null,"name":"dense_Dense141","trainable":true,"batch_input_shape":[null,100],"dtype":"float32"}},{"class_name":"Dense","config":{"units":100,"activation":"sigmoid","use_bias":true,"kernel_initializer":{"class_name":"VarianceScaling","config":{"scale":1,"mode":"fan_avg","distribution":"normal","seed":null}},"bias_initializer":{"class_name":"Zeros","config":{}},"kernel_regularizer":null,"bias_regularizer":null,"activity_regularizer":null,"kernel_constraint":null,"bias_constraint":null,"name":"dense_Dense142","trainable":true,"batch_input_shape":[null,100],"dtype":"float32"}},{"class_name":"Dense","config":{"units":100,"activation":"sigmoid","use_bias":true,"kernel_initializer":{"class_name":"VarianceScaling","config":{"scale":1,"mode":"fan_avg","distribution":"normal","seed":null}},"bias_initializer":{"class_name":"Zeros","config":{}},"kernel_regularizer":null,"bias_regularizer":null,"activity_regularizer":null,"kernel_constraint":null,"bias_constraint":null,"name":"dense_Dense143","trainable":true,"batch_input_shape":[null,100],"dtype":"float32"}},{"class_name":"Dense","config":{"units":100,"activation":"sigmoid","use_bias":true,"kernel_initializer":{"class_name":"VarianceScaling","config":{"scale":1,"mode":"fan_avg","distribution":"normal","seed":null}},"bias_initializer":{"class_name":"Zeros","config":{}},"kernel_regularizer":null,"bias_regularizer":null,"activity_regularizer":null,"kernel_constraint":null,"bias_constraint":null,"name":"dense_Dense144","trainable":true,"batch_input_shape":[null,100],"dtype":"float32"}},{"class_name":"Dense","config":{"units":100,"activation":"sigmoid","use_bias":true,"kernel_initializer":{"class_name":"VarianceScaling","config":{"scale":1,"mode":"fan_avg","distribution":"normal","seed":null}},"bias_initializer":{"class_name":"Zeros","config":{}},"kernel_regularizer":null,"bias_regularizer":null,"activity_regularizer":null,"kernel_constraint":null,"bias_constraint":null,"name":"dense_Dense145","trainable":true,"batch_input_shape":[null,100],"dtype":"float32"}},{"class_name":"Dense","config":{"units":100,"activation":"sigmoid","use_bias":true,"kernel_initializer":{"class_name":"VarianceScaling","config":{"scale":1,"mode":"fan_avg","distribution":"normal","seed":null}},"bias_initializer":{"class_name":"Zeros","config":{}},"kernel_regularizer":null,"bias_regularizer":null,"activity_regularizer":null,"kernel_constraint":null,"bias_constraint":null,"name":"dense_Dense146","trainable":true,"batch_input_shape":[null,100],"dtype":"float32"}},{"class_name":"Dense","config":{"units":100,"activation":"sigmoid","use_bias":true,"kernel_initializer":{"class_name":"VarianceScaling","config":{"scale":1,"mode":"fan_avg","distribution":"normal","seed":null}},"bias_initializer":{"class_name":"Zeros","config":{}},"kernel_regularizer":null,"bias_regularizer":null,"activity_regularizer":null,"kernel_constraint":null,"bias_constraint":null,"name":"dense_Dense147","trainable":true,"batch_input_shape":[null,100],"dtype":"float32"}},{"class_name":"Dense","config":{"units":100,"activation":"sigmoid","use_bias":true,"kernel_initializer":{"class_name":"VarianceScaling","config":{"scale":1,"mode":"fan_avg","distribution":"normal","seed":null}},"bias_initializer":{"class_name":"Zeros","config":{}},"kernel_regularizer":null,"bias_regularizer":null,"activity_regularizer":null,"kernel_constraint":null,"bias_constraint":null,"name":"dense_Dense148","trainable":true,"batch_input_shape":[null,100],"dtype":"float32"}},{"class_name":"Dense","config":{"units":100,"activation":"sigmoid","use_bias":true,"kernel_initializer":{"class_name":"VarianceScaling","config":{"scale":1,"mode":"fan_avg","distribution":"normal","seed":null}},"bias_initializer":{"class_name":"Zeros","config":{}},"kernel_regularizer":null,"bias_regularizer":null,"activity_regularizer":null,"kernel_constraint":null,"bias_constraint":null,"name":"dense_Dense149","trainable":true,"batch_input_shape":[null,100],"dtype":"float32"}},{"class_name":"Dense","config":{"units":100,"activation":"sigmoid","use_bias":true,"kernel_initializer":{"class_name":"VarianceScaling","config":{"scale":1,"mode":"fan_avg","distribution":"normal","seed":null}},"bias_initializer":{"class_name":"Zeros","config":{}},"kernel_regularizer":null,"bias_regularizer":null,"activity_regularizer":null,"kernel_constraint":null,"bias_constraint":null,"name":"dense_Dense150","trainable":true,"batch_input_shape":[null,100],"dtype":"float32"}},{"class_name":"Dense","config":{"units":100,"activation":"sigmoid","use_bias":true,"kernel_initializer":{"class_name":"VarianceScaling","config":{"scale":1,"mode":"fan_avg","distribution":"normal","seed":null}},"bias_initializer":{"class_name":"Zeros","config":{}},"kernel_regularizer":null,"bias_regularizer":null,"activity_regularizer":null,"kernel_constraint":null,"bias_constraint":null,"name":"dense_Dense151","trainable":true,"batch_input_shape":[null,100],"dtype":"float32"}},{"class_name":"Dense","config":{"units":100,"activation":"sigmoid","use_bias":true,"kernel_initializer":{"class_name":"VarianceScaling","config":{"scale":1,"mode":"fan_avg","distribution":"normal","seed":null}},"bias_initializer":{"class_name":"Zeros","config":{}},"kernel_regularizer":null,"bias_regularizer":null,"activity_regularizer":null,"kernel_constraint":null,"bias_constraint":null,"name":"dense_Dense152","trainable":true,"batch_input_shape":[null,100],"dtype":"float32"}},{"class_name":"Dense","config":{"units":100,"activation":"sigmoid","use_bias":true,"kernel_initializer":{"class_name":"VarianceScaling","config":{"scale":1,"mode":"fan_avg","distribution":"normal","seed":null}},"bias_initializer":{"class_name":"Zeros","config":{}},"kernel_regularizer":null,"bias_regularizer":null,"activity_regularizer":null,"kernel_constraint":null,"bias_constraint":null,"name":"dense_Dense153","trainable":true,"batch_input_shape":[null,100],"dtype":"float32"}},{"class_name":"Dense","config":{"units":100,"activation":"sigmoid","use_bias":true,"kernel_initializer":{"class_name":"VarianceScaling","config":{"scale":1,"mode":"fan_avg","distribution":"normal","seed":null}},"bias_initializer":{"class_name":"Zeros","config":{}},"kernel_regularizer":null,"bias_regularizer":null,"activity_regularizer":null,"kernel_constraint":null,"bias_constraint":null,"name":"dense_Dense154","trainable":true,"batch_input_shape":[null,100],"dtype":"float32"}},{"class_name":"Dense","config":{"units":100,"activation":"sigmoid","use_bias":true,"kernel_initializer":{"class_name":"VarianceScaling","config":{"scale":1,"mode":"fan_avg","distribution":"normal","seed":null}},"bias_initializer":{"class_name":"Zeros","config":{}},"kernel_regularizer":null,"bias_regularizer":null,"activity_regularizer":null,"kernel_constraint":null,"bias_constraint":null,"name":"dense_Dense155","trainable":true,"batch_input_shape":[null,100],"dtype":"float32"}},{"class_name":"Dense","config":{"units":100,"activation":"sigmoid","use_bias":true,"kernel_initializer":{"class_name":"VarianceScaling","config":{"scale":1,"mode":"fan_avg","distribution":"normal","seed":null}},"bias_initializer":{"class_name":"Zeros","config":{}},"kernel_regularizer":null,"bias_regularizer":null,"activity_regularizer":null,"kernel_constraint":null,"bias_constraint":null,"name":"dense_Dense156","trainable":true,"batch_input_shape":[null,100],"dtype":"float32"}},{"class_name":"Dense","config":{"units":100,"activation":"sigmoid","use_bias":true,"kernel_initializer":{"class_name":"VarianceScaling","config":{"scale":1,"mode":"fan_avg","distribution":"normal","seed":null}},"bias_initializer":{"class_name":"Zeros","config":{}},"kernel_regularizer":null,"bias_regularizer":null,"activity_regularizer":null,"kernel_constraint":null,"bias_constraint":null,"name":"dense_Dense157","trainable":true,"batch_input_shape":[null,100],"dtype":"float32"}},{"class_name":"Dense","config":{"units":100,"activation":"sigmoid","use_bias":true,"kernel_initializer":{"class_name":"VarianceScaling","config":{"scale":1,"mode":"fan_avg","distribution":"normal","seed":null}},"bias_initializer":{"class_name":"Zeros","config":{}},"kernel_regularizer":null,"bias_regularizer":null,"activity_regularizer":null,"kernel_constraint":null,"bias_constraint":null,"name":"dense_Dense158","trainable":true,"batch_input_shape":[null,100],"dtype":"float32"}},{"class_name":"Dense","config":{"units":100,"activation":"sigmoid","use_bias":true,"kernel_initializer":{"class_name":"VarianceScaling","config":{"scale":1,"mode":"fan_avg","distribution":"normal","seed":null}},"bias_initializer":{"class_name":"Zeros","config":{}},"kernel_regularizer":null,"bias_regularizer":null,"activity_regularizer":null,"kernel_constraint":null,"bias_constraint":null,"name":"dense_Dense159","trainable":true,"batch_input_shape":[null,100],"dtype":"float32"}},{"class_name":"Dense","config":{"units":100,"activation":"sigmoid","use_bias":true,"kernel_initializer":{"class_name":"VarianceScaling","config":{"scale":1,"mode":"fan_avg","distribution":"normal","seed":null}},"bias_initializer":{"class_name":"Zeros","config":{}},"kernel_regularizer":null,"bias_regularizer":null,"activity_regularizer":null,"kernel_constraint":null,"bias_constraint":null,"name":"dense_Dense160","trainable":true,"batch_input_shape":[null,100],"dtype":"float32"}},{"class_name":"Dense","config":{"units":100,"activation":"sigmoid","use_bias":true,"kernel_initializer":{"class_name":"VarianceScaling","config":{"scale":1,"mode":"fan_avg","distribution":"normal","seed":null}},"bias_initializer":{"class_name":"Zeros","config":{}},"kernel_regularizer":null,"bias_regularizer":null,"activity_regularizer":null,"kernel_constraint":null,"bias_constraint":null,"name":"dense_Dense161","trainable":true,"batch_input_shape":[null,100],"dtype":"float32"}},{"class_name":"Dense","config":{"units":100,"activation":"sigmoid","use_bias":true,"kernel_initializer":{"class_name":"VarianceScaling","config":{"scale":1,"mode":"fan_avg","distribution":"normal","seed":null}},"bias_initializer":{"class_name":"Zeros","config":{}},"kernel_regularizer":null,"bias_regularizer":null,"activity_regularizer":null,"kernel_constraint":null,"bias_constraint":null,"name":"dense_Dense162","trainable":true,"batch_input_shape":[null,100],"dtype":"float32"}},{"class_name":"Dense","config":{"units":100,"activation":"sigmoid","use_bias":true,"kernel_initializer":{"class_name":"VarianceScaling","config":{"scale":1,"mode":"fan_avg","distribution":"normal","seed":null}},"bias_initializer":{"class_name":"Zeros","config":{}},"kernel_regularizer":null,"bias_regularizer":null,"activity_regularizer":null,"kernel_constraint":null,"bias_constraint":null,"name":"dense_Dense163","trainable":true,"batch_input_shape":[null,100],"dtype":"float32"}},{"class_name":"Dense","config":{"units":100,"activation":"sigmoid","use_bias":true,"kernel_initializer":{"class_name":"VarianceScaling","config":{"scale":1,"mode":"fan_avg","distribution":"normal","seed":null}},"bias_initializer":{"class_name":"Zeros","config":{}},"kernel_regularizer":null,"bias_regularizer":null,"activity_regularizer":null,"kernel_constraint":null,"bias_constraint":null,"name":"dense_Dense164","trainable":true,"batch_input_shape":[null,100],"dtype":"float32"}},{"class_name":"Dense","config":{"units":100,"activation":"sigmoid","use_bias":true,"kernel_initializer":{"class_name":"VarianceScaling","config":{"scale":1,"mode":"fan_avg","distribution":"normal","seed":null}},"bias_initializer":{"class_name":"Zeros","config":{}},"kernel_regularizer":null,"bias_regularizer":null,"activity_regularizer":null,"kernel_constraint":null,"bias_constraint":null,"name":"dense_Dense165","trainable":true,"batch_input_shape":[null,100],"dtype":"float32"}},{"class_name":"Dense","config":{"units":100,"activation":"sigmoid","use_bias":true,"kernel_initializer":{"class_name":"VarianceScaling","config":{"scale":1,"mode":"fan_avg","distribution":"normal","seed":null}},"bias_initializer":{"class_name":"Zeros","config":{}},"kernel_regularizer":null,"bias_regularizer":null,"activity_regularizer":null,"kernel_constraint":null,"bias_constraint":null,"name":"dense_Dense166","trainable":true,"batch_input_shape":[null,100],"dtype":"float32"}},{"class_name":"Dense","config":{"units":100,"activation":"sigmoid","use_bias":true,"kernel_initializer":{"class_name":"VarianceScaling","config":{"scale":1,"mode":"fan_avg","distribution":"normal","seed":null}},"bias_initializer":{"class_name":"Zeros","config":{}},"kernel_regularizer":null,"bias_regularizer":null,"activity_regularizer":null,"kernel_constraint":null,"bias_constraint":null,"name":"dense_Dense167","trainable":true,"batch_input_shape":[null,100],"dtype":"float32"}},{"class_name":"Dense","config":{"units":100,"activation":"sigmoid","use_bias":true,"kernel_initializer":{"class_name":"VarianceScaling","config":{"scale":1,"mode":"fan_avg","distribution":"normal","seed":null}},"bias_initializer":{"class_name":"Zeros","config":{}},"kernel_regularizer":null,"bias_regularizer":null,"activity_regularizer":null,"kernel_constraint":null,"bias_constraint":null,"name":"dense_Dense168","trainable":true,"batch_input_shape":[null,100],"dtype":"float32"}},{"class_name":"Dense","config":{"units":100,"activation":"sigmoid","use_bias":true,"kernel_initializer":{"class_name":"VarianceScaling","config":{"scale":1,"mode":"fan_avg","distribution":"normal","seed":null}},"bias_initializer":{"class_name":"Zeros","config":{}},"kernel_regularizer":null,"bias_regularizer":null,"activity_regularizer":null,"kernel_constraint":null,"bias_constraint":null,"name":"dense_Dense169","trainable":true,"batch_input_shape":[null,100],"dtype":"float32"}},{"class_name":"Dense","config":{"units":100,"activation":"sigmoid","use_bias":true,"kernel_initializer":{"class_name":"VarianceScaling","config":{"scale":1,"mode":"fan_avg","distribution":"normal","seed":null}},"bias_initializer":{"class_name":"Zeros","config":{}},"kernel_regularizer":null,"bias_regularizer":null,"activity_regularizer":null,"kernel_constraint":null,"bias_constraint":null,"name":"dense_Dense170","trainable":true,"batch_input_shape":[null,100],"dtype":"float32"}},{"class_name":"Dense","config":{"units":100,"activation":"sigmoid","use_bias":true,"kernel_initializer":{"class_name":"VarianceScaling","config":{"scale":1,"mode":"fan_avg","distribution":"normal","seed":null}},"bias_initializer":{"class_name":"Zeros","config":{}},"kernel_regularizer":null,"bias_regularizer":null,"activity_regularizer":null,"kernel_constraint":null,"bias_constraint":null,"name":"dense_Dense171","trainable":true,"batch_input_shape":[null,100],"dtype":"float32"}},{"class_name":"Dense","config":{"units":100,"activation":"sigmoid","use_bias":true,"kernel_initializer":{"class_name":"VarianceScaling","config":{"scale":1,"mode":"fan_avg","distribution":"normal","seed":null}},"bias_initializer":{"class_name":"Zeros","config":{}},"kernel_regularizer":null,"bias_regularizer":null,"activity_regularizer":null,"kernel_constraint":null,"bias_constraint":null,"name":"dense_Dense172","trainable":true,"batch_input_shape":[null,100],"dtype":"float32"}},{"class_name":"Dense","config":{"units":100,"activation":"sigmoid","use_bias":true,"kernel_initializer":{"class_name":"VarianceScaling","config":{"scale":1,"mode":"fan_avg","distribution":"normal","seed":null}},"bias_initializer":{"class_name":"Zeros","config":{}},"kernel_regularizer":null,"bias_regularizer":null,"activity_regularizer":null,"kernel_constraint":null,"bias_constraint":null,"name":"dense_Dense173","trainable":true,"batch_input_shape":[null,100],"dtype":"float32"}},{"class_name":"Dense","config":{"units":100,"activation":"sigmoid","use_bias":true,"kernel_initializer":{"class_name":"VarianceScaling","config":{"scale":1,"mode":"fan_avg","distribution":"normal","seed":null}},"bias_initializer":{"class_name":"Zeros","config":{}},"kernel_regularizer":null,"bias_regularizer":null,"activity_regularizer":null,"kernel_constraint":null,"bias_constraint":null,"name":"dense_Dense174","trainable":true,"batch_input_shape":[null,100],"dtype":"float32"}},{"class_name":"Dense","config":{"units":100,"activation":"sigmoid","use_bias":true,"kernel_initializer":{"class_name":"VarianceScaling","config":{"scale":1,"mode":"fan_avg","distribution":"normal","seed":null}},"bias_initializer":{"class_name":"Zeros","config":{}},"kernel_regularizer":null,"bias_regularizer":null,"activity_regularizer":null,"kernel_constraint":null,"bias_constraint":null,"name":"dense_Dense175","trainable":true,"batch_input_shape":[null,100],"dtype":"float32"}},{"class_name":"Dense","config":{"units":100,"activation":"sigmoid","use_bias":true,"kernel_initializer":{"class_name":"VarianceScaling","config":{"scale":1,"mode":"fan_avg","distribution":"normal","seed":null}},"bias_initializer":{"class_name":"Zeros","config":{}},"kernel_regularizer":null,"bias_regularizer":null,"activity_regularizer":null,"kernel_constraint":null,"bias_constraint":null,"name":"dense_Dense176","trainable":true,"batch_input_shape":[null,100],"dtype":"float32"}},{"class_name":"Dense","config":{"units":100,"activation":"sigmoid","use_bias":true,"kernel_initializer":{"class_name":"VarianceScaling","config":{"scale":1,"mode":"fan_avg","distribution":"normal","seed":null}},"bias_initializer":{"class_name":"Zeros","config":{}},"kernel_regularizer":null,"bias_regularizer":null,"activity_regularizer":null,"kernel_constraint":null,"bias_constraint":null,"name":"dense_Dense177","trainable":true,"batch_input_shape":[null,100],"dtype":"float32"}},{"class_name":"Dense","config":{"units":100,"activation":"sigmoid","use_bias":true,"kernel_initializer":{"class_name":"VarianceScaling","config":{"scale":1,"mode":"fan_avg","distribution":"normal","seed":null}},"bias_initializer":{"class_name":"Zeros","config":{}},"kernel_regularizer":null,"bias_regularizer":null,"activity_regularizer":null,"kernel_constraint":null,"bias_constraint":null,"name":"dense_Dense178","trainable":true,"batch_input_shape":[null,100],"dtype":"float32"}},{"class_name":"Dense","config":{"units":100,"activation":"sigmoid","use_bias":true,"kernel_initializer":{"class_name":"VarianceScaling","config":{"scale":1,"mode":"fan_avg","distribution":"normal","seed":null}},"bias_initializer":{"class_name":"Zeros","config":{}},"kernel_regularizer":null,"bias_regularizer":null,"activity_regularizer":null,"kernel_constraint":null,"bias_constraint":null,"name":"dense_Dense179","trainable":true,"batch_input_shape":[null,100],"dtype":"float32"}},{"class_name":"Dense","config":{"units":100,"activation":"sigmoid","use_bias":true,"kernel_initializer":{"class_name":"VarianceScaling","config":{"scale":1,"mode":"fan_avg","distribution":"normal","seed":null}},"bias_initializer":{"class_name":"Zeros","config":{}},"kernel_regularizer":null,"bias_regularizer":null,"activity_regularizer":null,"kernel_constraint":null,"bias_constraint":null,"name":"dense_Dense180","trainable":true,"batch_input_shape":[null,100],"dtype":"float32"}},{"class_name":"Dense","config":{"units":100,"activation":"sigmoid","use_bias":true,"kernel_initializer":{"class_name":"VarianceScaling","config":{"scale":1,"mode":"fan_avg","distribution":"normal","seed":null}},"bias_initializer":{"class_name":"Zeros","config":{}},"kernel_regularizer":null,"bias_regularizer":null,"activity_regularizer":null,"kernel_constraint":null,"bias_constraint":null,"name":"dense_Dense181","trainable":true,"batch_input_shape":[null,100],"dtype":"float32"}},{"class_name":"Dense","config":{"units":100,"activation":"sigmoid","use_bias":true,"kernel_initializer":{"class_name":"VarianceScaling","config":{"scale":1,"mode":"fan_avg","distribution":"normal","seed":null}},"bias_initializer":{"class_name":"Zeros","config":{}},"kernel_regularizer":null,"bias_regularizer":null,"activity_regularizer":null,"kernel_constraint":null,"bias_constraint":null,"name":"dense_Dense182","trainable":true,"batch_input_shape":[null,100],"dtype":"float32"}},{"class_name":"Dense","config":{"units":100,"activation":"sigmoid","use_bias":true,"kernel_initializer":{"class_name":"VarianceScaling","config":{"scale":1,"mode":"fan_avg","distribution":"normal","seed":null}},"bias_initializer":{"class_name":"Zeros","config":{}},"kernel_regularizer":null,"bias_regularizer":null,"activity_regularizer":null,"kernel_constraint":null,"bias_constraint":null,"name":"dense_Dense183","trainable":true,"batch_input_shape":[null,100],"dtype":"float32"}},{"class_name":"Dense","config":{"units":100,"activation":"sigmoid","use_bias":true,"kernel_initializer":{"class_name":"VarianceScaling","config":{"scale":1,"mode":"fan_avg","distribution":"normal","seed":null}},"bias_initializer":{"class_name":"Zeros","config":{}},"kernel_regularizer":null,"bias_regularizer":null,"activity_regularizer":null,"kernel_constraint":null,"bias_constraint":null,"name":"dense_Dense184","trainable":true,"batch_input_shape":[null,100],"dtype":"float32"}},{"class_name":"Dense","config":{"units":100,"activation":"sigmoid","use_bias":true,"kernel_initializer":{"class_name":"VarianceScaling","config":{"scale":1,"mode":"fan_avg","distribution":"normal","seed":null}},"bias_initializer":{"class_name":"Zeros","config":{}},"kernel_regularizer":null,"bias_regularizer":null,"activity_regularizer":null,"kernel_constraint":null,"bias_constraint":null,"name":"dense_Dense185","trainable":true,"batch_input_shape":[null,100],"dtype":"float32"}},{"class_name":"Dense","config":{"units":100,"activation":"sigmoid","use_bias":true,"kernel_initializer":{"class_name":"VarianceScaling","config":{"scale":1,"mode":"fan_avg","distribution":"normal","seed":null}},"bias_initializer":{"class_name":"Zeros","config":{}},"kernel_regularizer":null,"bias_regularizer":null,"activity_regularizer":null,"kernel_constraint":null,"bias_constraint":null,"name":"dense_Dense186","trainable":true,"batch_input_shape":[null,100],"dtype":"float32"}},{"class_name":"Dense","config":{"units":100,"activation":"sigmoid","use_bias":true,"kernel_initializer":{"class_name":"VarianceScaling","config":{"scale":1,"mode":"fan_avg","distribution":"normal","seed":null}},"bias_initializer":{"class_name":"Zeros","config":{}},"kernel_regularizer":null,"bias_regularizer":null,"activity_regularizer":null,"kernel_constraint":null,"bias_constraint":null,"name":"dense_Dense187","trainable":true,"batch_input_shape":[null,100],"dtype":"float32"}},{"class_name":"Dense","config":{"units":100,"activation":"sigmoid","use_bias":true,"kernel_initializer":{"class_name":"VarianceScaling","config":{"scale":1,"mode":"fan_avg","distribution":"normal","seed":null}},"bias_initializer":{"class_name":"Zeros","config":{}},"kernel_regularizer":null,"bias_regularizer":null,"activity_regularizer":null,"kernel_constraint":null,"bias_constraint":null,"name":"dense_Dense188","trainable":true,"batch_input_shape":[null,100],"dtype":"float32"}},{"class_name":"Dense","config":{"units":100,"activation":"sigmoid","use_bias":true,"kernel_initializer":{"class_name":"VarianceScaling","config":{"scale":1,"mode":"fan_avg","distribution":"normal","seed":null}},"bias_initializer":{"class_name":"Zeros","config":{}},"kernel_regularizer":null,"bias_regularizer":null,"activity_regularizer":null,"kernel_constraint":null,"bias_constraint":null,"name":"dense_Dense189","trainable":true,"batch_input_shape":[null,100],"dtype":"float32"}},{"class_name":"Dense","config":{"units":100,"activation":"sigmoid","use_bias":true,"kernel_initializer":{"class_name":"VarianceScaling","config":{"scale":1,"mode":"fan_avg","distribution":"normal","seed":null}},"bias_initializer":{"class_name":"Zeros","config":{}},"kernel_regularizer":null,"bias_regularizer":null,"activity_regularizer":null,"kernel_constraint":null,"bias_constraint":null,"name":"dense_Dense190","trainable":true,"batch_input_shape":[null,100],"dtype":"float32"}},{"class_name":"Dense","config":{"units":100,"activation":"sigmoid","use_bias":true,"kernel_initializer":{"class_name":"VarianceScaling","config":{"scale":1,"mode":"fan_avg","distribution":"normal","seed":null}},"bias_initializer":{"class_name":"Zeros","config":{}},"kernel_regularizer":null,"bias_regularizer":null,"activity_regularizer":null,"kernel_constraint":null,"bias_constraint":null,"name":"dense_Dense191","trainable":true,"batch_input_shape":[null,100],"dtype":"float32"}},{"class_name":"Dense","config":{"units":100,"activation":"sigmoid","use_bias":true,"kernel_initializer":{"class_name":"VarianceScaling","config":{"scale":1,"mode":"fan_avg","distribution":"normal","seed":null}},"bias_initializer":{"class_name":"Zeros","config":{}},"kernel_regularizer":null,"bias_regularizer":null,"activity_regularizer":null,"kernel_constraint":null,"bias_constraint":null,"name":"dense_Dense192","trainable":true,"batch_input_shape":[null,100],"dtype":"float32"}},{"class_name":"Dense","config":{"units":100,"activation":"sigmoid","use_bias":true,"kernel_initializer":{"class_name":"VarianceScaling","config":{"scale":1,"mode":"fan_avg","distribution":"normal","seed":null}},"bias_initializer":{"class_name":"Zeros","config":{}},"kernel_regularizer":null,"bias_regularizer":null,"activity_regularizer":null,"kernel_constraint":null,"bias_constraint":null,"name":"dense_Dense193","trainable":true,"batch_input_shape":[null,100],"dtype":"float32"}},{"class_name":"Dense","config":{"units":100,"activation":"sigmoid","use_bias":true,"kernel_initializer":{"class_name":"VarianceScaling","config":{"scale":1,"mode":"fan_avg","distribution":"normal","seed":null}},"bias_initializer":{"class_name":"Zeros","config":{}},"kernel_regularizer":null,"bias_regularizer":null,"activity_regularizer":null,"kernel_constraint":null,"bias_constraint":null,"name":"dense_Dense194","trainable":true,"batch_input_shape":[null,100],"dtype":"float32"}},{"class_name":"Dense","config":{"units":100,"activation":"sigmoid","use_bias":true,"kernel_initializer":{"class_name":"VarianceScaling","config":{"scale":1,"mode":"fan_avg","distribution":"normal","seed":null}},"bias_initializer":{"class_name":"Zeros","config":{}},"kernel_regularizer":null,"bias_regularizer":null,"activity_regularizer":null,"kernel_constraint":null,"bias_constraint":null,"name":"dense_Dense195","trainable":true,"batch_input_shape":[null,100],"dtype":"float32"}},{"class_name":"Dense","config":{"units":100,"activation":"sigmoid","use_bias":true,"kernel_initializer":{"class_name":"VarianceScaling","config":{"scale":1,"mode":"fan_avg","distribution":"normal","seed":null}},"bias_initializer":{"class_name":"Zeros","config":{}},"kernel_regularizer":null,"bias_regularizer":null,"activity_regularizer":null,"kernel_constraint":null,"bias_constraint":null,"name":"dense_Dense196","trainable":true,"batch_input_shape":[null,100],"dtype":"float32"}},{"class_name":"Dense","config":{"units":100,"activation":"sigmoid","use_bias":true,"kernel_initializer":{"class_name":"VarianceScaling","config":{"scale":1,"mode":"fan_avg","distribution":"normal","seed":null}},"bias_initializer":{"class_name":"Zeros","config":{}},"kernel_regularizer":null,"bias_regularizer":null,"activity_regularizer":null,"kernel_constraint":null,"bias_constraint":null,"name":"dense_Dense197","trainable":true,"batch_input_shape":[null,100],"dtype":"float32"}},{"class_name":"Dense","config":{"units":100,"activation":"sigmoid","use_bias":true,"kernel_initializer":{"class_name":"VarianceScaling","config":{"scale":1,"mode":"fan_avg","distribution":"normal","seed":null}},"bias_initializer":{"class_name":"Zeros","config":{}},"kernel_regularizer":null,"bias_regularizer":null,"activity_regularizer":null,"kernel_constraint":null,"bias_constraint":null,"name":"dense_Dense198","trainable":true,"batch_input_shape":[null,100],"dtype":"float32"}},{"class_name":"Dense","config":{"units":100,"activation":"sigmoid","use_bias":true,"kernel_initializer":{"class_name":"VarianceScaling","config":{"scale":1,"mode":"fan_avg","distribution":"normal","seed":null}},"bias_initializer":{"class_name":"Zeros","config":{}},"kernel_regularizer":null,"bias_regularizer":null,"activity_regularizer":null,"kernel_constraint":null,"bias_constraint":null,"name":"dense_Dense199","trainable":true,"batch_input_shape":[null,100],"dtype":"float32"}},{"class_name":"Dense","config":{"units":100,"activation":"sigmoid","use_bias":true,"kernel_initializer":{"class_name":"VarianceScaling","config":{"scale":1,"mode":"fan_avg","distribution":"normal","seed":null}},"bias_initializer":{"class_name":"Zeros","config":{}},"kernel_regularizer":null,"bias_regularizer":null,"activity_regularizer":null,"kernel_constraint":null,"bias_constraint":null,"name":"dense_Dense200","trainable":true,"batch_input_shape":[null,100],"dtype":"float32"}},{"class_name":"Dense","config":{"units":1,"activation":"sigmoid","use_bias":true,"kernel_initializer":{"class_name":"VarianceScaling","config":{"scale":1,"mode":"fan_avg","distribution":"normal","seed":null}},"bias_initializer":{"class_name":"Zeros","config":{}},"kernel_regularizer":null,"bias_regularizer":null,"activity_regularizer":null,"kernel_constraint":null,"bias_constraint":null,"name":"dense_Dense201","trainable":true,"batch_input_shape":[null,100],"dtype":"float32"}}]},"keras_version":"tfjs-layers 2.1.0","backend":"tensor_flow.js"},"format":"layers-model","generatedBy":"TensorFlow.js tfjs-layers v2.1.0","convertedBy":null,"weightsManifest":[{"paths":["./model.weights.bin"],"weights":[{"name":"dense_Dense1/kernel","shape":[2,100],"dtype":"float32"},{"name":"dense_Dense1/bias","shape":[100],"dtype":"float32"},{"name":"dense_Dense2/kernel","shape":[100,100],"dtype":"float32"},{"name":"dense_Dense2/bias","shape":[100],"dtype":"float32"},{"name":"dense_Dense3/kernel","shape":[100,100],"dtype":"float32"},{"name":"dense_Dense3/bias","shape":[100],"dtype":"float32"},{"name":"dense_Dense4/kernel","shape":[100,100],"dtype":"float32"},{"name":"dense_Dense4/bias","shape":[100],"dtype":"float32"},{"name":"dense_Dense5/kernel","shape":[100,100],"dtype":"float32"},{"name":"dense_Dense5/bias","shape":[100],"dtype":"float32"},{"name":"dense_Dense6/kernel","shape":[100,100],"dtype":"float32"},{"name":"dense_Dense6/bias","shape":[100],"dtype":"float32"},{"name":"dense_Dense7/kernel","shape":[100,100],"dtype":"float32"},{"name":"dense_Dense7/bias","shape":[100],"dtype":"float32"},{"name":"dense_Dense8/kernel","shape":[100,100],"dtype":"float32"},{"name":"dense_Dense8/bias","shape":[100],"dtype":"float32"},{"name":"dense_Dense9/kernel","shape":[100,100],"dtype":"float32"},{"name":"dense_Dense9/bias","shape":[100],"dtype":"float32"},{"name":"dense_Dense10/kernel","shape":[100,100],"dtype":"float32"},{"name":"dense_Dense10/bias","shape":[100],"dtype":"float32"},{"name":"dense_Dense11/kernel","shape":[100,100],"dtype":"float32"},{"name":"dense_Dense11/bias","shape":[100],"dtype":"float32"},{"name":"dense_Dense12/kernel","shape":[100,100],"dtype":"float32"},{"name":"dense_Dense12/bias","shape":[100],"dtype":"float32"},{"name":"dense_Dense13/kernel","shape":[100,100],"dtype":"float32"},{"name":"dense_Dense13/bias","shape":[100],"dtype":"float32"},{"name":"dense_Dense14/kernel","shape":[100,100],"dtype":"float32"},{"name":"dense_Dense14/bias","shape":[100],"dtype":"float32"},{"name":"dense_Dense15/kernel","shape":[100,100],"dtype":"float32"},{"name":"dense_Dense15/bias","shape":[100],"dtype":"float32"},{"name":"dense_Dense16/kernel","shape":[100,100],"dtype":"float32"},{"name":"dense_Dense16/bias","shape":[100],"dtype":"float32"},{"name":"dense_Dense17/kernel","shape":[100,100],"dtype":"float32"},{"name":"dense_Dense17/bias","shape":[100],"dtype":"float32"},{"name":"dense_Dense18/kernel","shape":[100,100],"dtype":"float32"},{"name":"dense_Dense18/bias","shape":[100],"dtype":"float32"},{"name":"dense_Dense19/kernel","shape":[100,100],"dtype":"float32"},{"name":"dense_Dense19/bias","shape":[100],"dtype":"float32"},{"name":"dense_Dense20/kernel","shape":[100,100],"dtype":"float32"},{"name":"dense_Dense20/bias","shape":[100],"dtype":"float32"},{"name":"dense_Dense21/kernel","shape":[100,100],"dtype":"float32"},{"name":"dense_Dense21/bias","shape":[100],"dtype":"float32"},{"name":"dense_Dense22/kernel","shape":[100,100],"dtype":"float32"},{"name":"dense_Dense22/bias","shape":[100],"dtype":"float32"},{"name":"dense_Dense23/kernel","shape":[100,100],"dtype":"float32"},{"name":"dense_Dense23/bias","shape":[100],"dtype":"float32"},{"name":"dense_Dense24/kernel","shape":[100,100],"dtype":"float32"},{"name":"dense_Dense24/bias","shape":[100],"dtype":"float32"},{"name":"dense_Dense25/kernel","shape":[100,100],"dtype":"float32"},{"name":"dense_Dense25/bias","shape":[100],"dtype":"float32"},{"name":"dense_Dense26/kernel","shape":[100,100],"dtype":"float32"},{"name":"dense_Dense26/bias","shape":[100],"dtype":"float32"},{"name":"dense_Dense27/kernel","shape":[100,100],"dtype":"float32"},{"name":"dense_Dense27/bias","shape":[100],"dtype":"float32"},{"name":"dense_Dense28/kernel","shape":[100,100],"dtype":"float32"},{"name":"dense_Dense28/bias","shape":[100],"dtype":"float32"},{"name":"dense_Dense29/kernel","shape":[100,100],"dtype":"float32"},{"name":"dense_Dense29/bias","shape":[100],"dtype":"float32"},{"name":"dense_Dense30/kernel","shape":[100,100],"dtype":"float32"},{"name":"dense_Dense30/bias","shape":[100],"dtype":"float32"},{"name":"dense_Dense31/kernel","shape":[100,100],"dtype":"float32"},{"name":"dense_Dense31/bias","shape":[100],"dtype":"float32"},{"name":"dense_Dense32/kernel","shape":[100,100],"dtype":"float32"},{"name":"dense_Dense32/bias","shape":[100],"dtype":"float32"},{"name":"dense_Dense33/kernel","shape":[100,100],"dtype":"float32"},{"name":"dense_Dense33/bias","shape":[100],"dtype":"float32"},{"name":"dense_Dense34/kernel","shape":[100,100],"dtype":"float32"},{"name":"dense_Dense34/bias","shape":[100],"dtype":"float32"},{"name":"dense_Dense35/kernel","shape":[100,100],"dtype":"float32"},{"name":"dense_Dense35/bias","shape":[100],"dtype":"float32"},{"name":"dense_Dense36/kernel","shape":[100,100],"dtype":"float32"},{"name":"dense_Dense36/bias","shape":[100],"dtype":"float32"},{"name":"dense_Dense37/kernel","shape":[100,100],"dtype":"float32"},{"name":"dense_Dense37/bias","shape":[100],"dtype":"float32"},{"name":"dense_Dense38/kernel","shape":[100,100],"dtype":"float32"},{"name":"dense_Dense38/bias","shape":[100],"dtype":"float32"},{"name":"dense_Dense39/kernel","shape":[100,100],"dtype":"float32"},{"name":"dense_Dense39/bias","shape":[100],"dtype":"float32"},{"name":"dense_Dense40/kernel","shape":[100,100],"dtype":"float32"},{"name":"dense_Dense40/bias","shape":[100],"dtype":"float32"},{"name":"dense_Dense41/kernel","shape":[100,100],"dtype":"float32"},{"name":"dense_Dense41/bias","shape":[100],"dtype":"float32"},{"name":"dense_Dense42/kernel","shape":[100,100],"dtype":"float32"},{"name":"dense_Dense42/bias","shape":[100],"dtype":"float32"},{"name":"dense_Dense43/kernel","shape":[100,100],"dtype":"float32"},{"name":"dense_Dense43/bias","shape":[100],"dtype":"float32"},{"name":"dense_Dense44/kernel","shape":[100,100],"dtype":"float32"},{"name":"dense_Dense44/bias","shape":[100],"dtype":"float32"},{"name":"dense_Dense45/kernel","shape":[100,100],"dtype":"float32"},{"name":"dense_Dense45/bias","shape":[100],"dtype":"float32"},{"name":"dense_Dense46/kernel","shape":[100,100],"dtype":"float32"},{"name":"dense_Dense46/bias","shape":[100],"dtype":"float32"},{"name":"dense_Dense47/kernel","shape":[100,100],"dtype":"float32"},{"name":"dense_Dense47/bias","shape":[100],"dtype":"float32"},{"name":"dense_Dense48/kernel","shape":[100,100],"dtype":"float32"},{"name":"dense_Dense48/bias","shape":[100],"dtype":"float32"},{"name":"dense_Dense49/kernel","shape":[100,100],"dtype":"float32"},{"name":"dense_Dense49/bias","shape":[100],"dtype":"float32"},{"name":"dense_Dense50/kernel","shape":[100,100],"dtype":"float32"},{"name":"dense_Dense50/bias","shape":[100],"dtype":"float32"},{"name":"dense_Dense51/kernel","shape":[100,100],"dtype":"float32"},{"name":"dense_Dense51/bias","shape":[100],"dtype":"float32"},{"name":"dense_Dense52/kernel","shape":[100,100],"dtype":"float32"},{"name":"dense_Dense52/bias","shape":[100],"dtype":"float32"},{"name":"dense_Dense53/kernel","shape":[100,100],"dtype":"float32"},{"name":"dense_Dense53/bias","shape":[100],"dtype":"float32"},{"name":"dense_Dense54/kernel","shape":[100,100],"dtype":"float32"},{"name":"dense_Dense54/bias","shape":[100],"dtype":"float32"},{"name":"dense_Dense55/kernel","shape":[100,100],"dtype":"float32"},{"name":"dense_Dense55/bias","shape":[100],"dtype":"float32"},{"name":"dense_Dense56/kernel","shape":[100,100],"dtype":"float32"},{"name":"dense_Dense56/bias","shape":[100],"dtype":"float32"},{"name":"dense_Dense57/kernel","shape":[100,100],"dtype":"float32"},{"name":"dense_Dense57/bias","shape":[100],"dtype":"float32"},{"name":"dense_Dense58/kernel","shape":[100,100],"dtype":"float32"},{"name":"dense_Dense58/bias","shape":[100],"dtype":"float32"},{"name":"dense_Dense59/kernel","shape":[100,100],"dtype":"float32"},{"name":"dense_Dense59/bias","shape":[100],"dtype":"float32"},{"name":"dense_Dense60/kernel","shape":[100,100],"dtype":"float32"},{"name":"dense_Dense60/bias","shape":[100],"dtype":"float32"},{"name":"dense_Dense61/kernel","shape":[100,100],"dtype":"float32"},{"name":"dense_Dense61/bias","shape":[100],"dtype":"float32"},{"name":"dense_Dense62/kernel","shape":[100,100],"dtype":"float32"},{"name":"dense_Dense62/bias","shape":[100],"dtype":"float32"},{"name":"dense_Dense63/kernel","shape":[100,100],"dtype":"float32"},{"name":"dense_Dense63/bias","shape":[100],"dtype":"float32"},{"name":"dense_Dense64/kernel","shape":[100,100],"dtype":"float32"},{"name":"dense_Dense64/bias","shape":[100],"dtype":"float32"},{"name":"dense_Dense65/kernel","shape":[100,100],"dtype":"float32"},{"name":"dense_Dense65/bias","shape":[100],"dtype":"float32"},{"name":"dense_Dense66/kernel","shape":[100,100],"dtype":"float32"},{"name":"dense_Dense66/bias","shape":[100],"dtype":"float32"},{"name":"dense_Dense67/kernel","shape":[100,100],"dtype":"float32"},{"name":"dense_Dense67/bias","shape":[100],"dtype":"float32"},{"name":"dense_Dense68/kernel","shape":[100,100],"dtype":"float32"},{"name":"dense_Dense68/bias","shape":[100],"dtype":"float32"},{"name":"dense_Dense69/kernel","shape":[100,100],"dtype":"float32"},{"name":"dense_Dense69/bias","shape":[100],"dtype":"float32"},{"name":"dense_Dense70/kernel","shape":[100,100],"dtype":"float32"},{"name":"dense_Dense70/bias","shape":[100],"dtype":"float32"},{"name":"dense_Dense71/kernel","shape":[100,100],"dtype":"float32"},{"name":"dense_Dense71/bias","shape":[100],"dtype":"float32"},{"name":"dense_Dense72/kernel","shape":[100,100],"dtype":"float32"},{"name":"dense_Dense72/bias","shape":[100],"dtype":"float32"},{"name":"dense_Dense73/kernel","shape":[100,100],"dtype":"float32"},{"name":"dense_Dense73/bias","shape":[100],"dtype":"float32"},{"name":"dense_Dense74/kernel","shape":[100,100],"dtype":"float32"},{"name":"dense_Dense74/bias","shape":[100],"dtype":"float32"},{"name":"dense_Dense75/kernel","shape":[100,100],"dtype":"float32"},{"name":"dense_Dense75/bias","shape":[100],"dtype":"float32"},{"name":"dense_Dense76/kernel","shape":[100,100],"dtype":"float32"},{"name":"dense_Dense76/bias","shape":[100],"dtype":"float32"},{"name":"dense_Dense77/kernel","shape":[100,100],"dtype":"float32"},{"name":"dense_Dense77/bias","shape":[100],"dtype":"float32"},{"name":"dense_Dense78/kernel","shape":[100,100],"dtype":"float32"},{"name":"dense_Dense78/bias","shape":[100],"dtype":"float32"},{"name":"dense_Dense79/kernel","shape":[100,100],"dtype":"float32"},{"name":"dense_Dense79/bias","shape":[100],"dtype":"float32"},{"name":"dense_Dense80/kernel","shape":[100,100],"dtype":"float32"},{"name":"dense_Dense80/bias","shape":[100],"dtype":"float32"},{"name":"dense_Dense81/kernel","shape":[100,100],"dtype":"float32"},{"name":"dense_Dense81/bias","shape":[100],"dtype":"float32"},{"name":"dense_Dense82/kernel","shape":[100,100],"dtype":"float32"},{"name":"dense_Dense82/bias","shape":[100],"dtype":"float32"},{"name":"dense_Dense83/kernel","shape":[100,100],"dtype":"float32"},{"name":"dense_Dense83/bias","shape":[100],"dtype":"float32"},{"name":"dense_Dense84/kernel","shape":[100,100],"dtype":"float32"},{"name":"dense_Dense84/bias","shape":[100],"dtype":"float32"},{"name":"dense_Dense85/kernel","shape":[100,100],"dtype":"float32"},{"name":"dense_Dense85/bias","shape":[100],"dtype":"float32"},{"name":"dense_Dense86/kernel","shape":[100,100],"dtype":"float32"},{"name":"dense_Dense86/bias","shape":[100],"dtype":"float32"},{"name":"dense_Dense87/kernel","shape":[100,100],"dtype":"float32"},{"name":"dense_Dense87/bias","shape":[100],"dtype":"float32"},{"name":"dense_Dense88/kernel","shape":[100,100],"dtype":"float32"},{"name":"dense_Dense88/bias","shape":[100],"dtype":"float32"},{"name":"dense_Dense89/kernel","shape":[100,100],"dtype":"float32"},{"name":"dense_Dense89/bias","shape":[100],"dtype":"float32"},{"name":"dense_Dense90/kernel","shape":[100,100],"dtype":"float32"},{"name":"dense_Dense90/bias","shape":[100],"dtype":"float32"},{"name":"dense_Dense91/kernel","shape":[100,100],"dtype":"float32"},{"name":"dense_Dense91/bias","shape":[100],"dtype":"float32"},{"name":"dense_Dense92/kernel","shape":[100,100],"dtype":"float32"},{"name":"dense_Dense92/bias","shape":[100],"dtype":"float32"},{"name":"dense_Dense93/kernel","shape":[100,100],"dtype":"float32"},{"name":"dense_Dense93/bias","shape":[100],"dtype":"float32"},{"name":"dense_Dense94/kernel","shape":[100,100],"dtype":"float32"},{"name":"dense_Dense94/bias","shape":[100],"dtype":"float32"},{"name":"dense_Dense95/kernel","shape":[100,100],"dtype":"float32"},{"name":"dense_Dense95/bias","shape":[100],"dtype":"float32"},{"name":"dense_Dense96/kernel","shape":[100,100],"dtype":"float32"},{"name":"dense_Dense96/bias","shape":[100],"dtype":"float32"},{"name":"dense_Dense97/kernel","shape":[100,100],"dtype":"float32"},{"name":"dense_Dense97/bias","shape":[100],"dtype":"float32"},{"name":"dense_Dense98/kernel","shape":[100,100],"dtype":"float32"},{"name":"dense_Dense98/bias","shape":[100],"dtype":"float32"},{"name":"dense_Dense99/kernel","shape":[100,100],"dtype":"float32"},{"name":"dense_Dense99/bias","shape":[100],"dtype":"float32"},{"name":"dense_Dense100/kernel","shape":[100,100],"dtype":"float32"},{"name":"dense_Dense100/bias","shape":[100],"dtype":"float32"},{"name":"dense_Dense101/kernel","shape":[100,100],"dtype":"float32"},{"name":"dense_Dense101/bias","shape":[100],"dtype":"float32"},{"name":"dense_Dense102/kernel","shape":[100,100],"dtype":"float32"},{"name":"dense_Dense102/bias","shape":[100],"dtype":"float32"},{"name":"dense_Dense103/kernel","shape":[100,100],"dtype":"float32"},{"name":"dense_Dense103/bias","shape":[100],"dtype":"float32"},{"name":"dense_Dense104/kernel","shape":[100,100],"dtype":"float32"},{"name":"dense_Dense104/bias","shape":[100],"dtype":"float32"},{"name":"dense_Dense105/kernel","shape":[100,100],"dtype":"float32"},{"name":"dense_Dense105/bias","shape":[100],"dtype":"float32"},{"name":"dense_Dense106/kernel","shape":[100,100],"dtype":"float32"},{"name":"dense_Dense106/bias","shape":[100],"dtype":"float32"},{"name":"dense_Dense107/kernel","shape":[100,100],"dtype":"float32"},{"name":"dense_Dense107/bias","shape":[100],"dtype":"float32"},{"name":"dense_Dense108/kernel","shape":[100,100],"dtype":"float32"},{"name":"dense_Dense108/bias","shape":[100],"dtype":"float32"},{"name":"dense_Dense109/kernel","shape":[100,100],"dtype":"float32"},{"name":"dense_Dense109/bias","shape":[100],"dtype":"float32"},{"name":"dense_Dense110/kernel","shape":[100,100],"dtype":"float32"},{"name":"dense_Dense110/bias","shape":[100],"dtype":"float32"},{"name":"dense_Dense111/kernel","shape":[100,100],"dtype":"float32"},{"name":"dense_Dense111/bias","shape":[100],"dtype":"float32"},{"name":"dense_Dense112/kernel","shape":[100,100],"dtype":"float32"},{"name":"dense_Dense112/bias","shape":[100],"dtype":"float32"},{"name":"dense_Dense113/kernel","shape":[100,100],"dtype":"float32"},{"name":"dense_Dense113/bias","shape":[100],"dtype":"float32"},{"name":"dense_Dense114/kernel","shape":[100,100],"dtype":"float32"},{"name":"dense_Dense114/bias","shape":[100],"dtype":"float32"},{"name":"dense_Dense115/kernel","shape":[100,100],"dtype":"float32"},{"name":"dense_Dense115/bias","shape":[100],"dtype":"float32"},{"name":"dense_Dense116/kernel","shape":[100,100],"dtype":"float32"},{"name":"dense_Dense116/bias","shape":[100],"dtype":"float32"},{"name":"dense_Dense117/kernel","shape":[100,100],"dtype":"float32"},{"name":"dense_Dense117/bias","shape":[100],"dtype":"float32"},{"name":"dense_Dense118/kernel","shape":[100,100],"dtype":"float32"},{"name":"dense_Dense118/bias","shape":[100],"dtype":"float32"},{"name":"dense_Dense119/kernel","shape":[100,100],"dtype":"float32"},{"name":"dense_Dense119/bias","shape":[100],"dtype":"float32"},{"name":"dense_Dense120/kernel","shape":[100,100],"dtype":"float32"},{"name":"dense_Dense120/bias","shape":[100],"dtype":"float32"},{"name":"dense_Dense121/kernel","shape":[100,100],"dtype":"float32"},{"name":"dense_Dense121/bias","shape":[100],"dtype":"float32"},{"name":"dense_Dense122/kernel","shape":[100,100],"dtype":"float32"},{"name":"dense_Dense122/bias","shape":[100],"dtype":"float32"},{"name":"dense_Dense123/kernel","shape":[100,100],"dtype":"float32"},{"name":"dense_Dense123/bias","shape":[100],"dtype":"float32"},{"name":"dense_Dense124/kernel","shape":[100,100],"dtype":"float32"},{"name":"dense_Dense124/bias","shape":[100],"dtype":"float32"},{"name":"dense_Dense125/kernel","shape":[100,100],"dtype":"float32"},{"name":"dense_Dense125/bias","shape":[100],"dtype":"float32"},{"name":"dense_Dense126/kernel","shape":[100,100],"dtype":"float32"},{"name":"dense_Dense126/bias","shape":[100],"dtype":"float32"},{"name":"dense_Dense127/kernel","shape":[100,100],"dtype":"float32"},{"name":"dense_Dense127/bias","shape":[100],"dtype":"float32"},{"name":"dense_Dense128/kernel","shape":[100,100],"dtype":"float32"},{"name":"dense_Dense128/bias","shape":[100],"dtype":"float32"},{"name":"dense_Dense129/kernel","shape":[100,100],"dtype":"float32"},{"name":"dense_Dense129/bias","shape":[100],"dtype":"float32"},{"name":"dense_Dense130/kernel","shape":[100,100],"dtype":"float32"},{"name":"dense_Dense130/bias","shape":[100],"dtype":"float32"},{"name":"dense_Dense131/kernel","shape":[100,100],"dtype":"float32"},{"name":"dense_Dense131/bias","shape":[100],"dtype":"float32"},{"name":"dense_Dense132/kernel","shape":[100,100],"dtype":"float32"},{"name":"dense_Dense132/bias","shape":[100],"dtype":"float32"},{"name":"dense_Dense133/kernel","shape":[100,100],"dtype":"float32"},{"name":"dense_Dense133/bias","shape":[100],"dtype":"float32"},{"name":"dense_Dense134/kernel","shape":[100,100],"dtype":"float32"},{"name":"dense_Dense134/bias","shape":[100],"dtype":"float32"},{"name":"dense_Dense135/kernel","shape":[100,100],"dtype":"float32"},{"name":"dense_Dense135/bias","shape":[100],"dtype":"float32"},{"name":"dense_Dense136/kernel","shape":[100,100],"dtype":"float32"},{"name":"dense_Dense136/bias","shape":[100],"dtype":"float32"},{"name":"dense_Dense137/kernel","shape":[100,100],"dtype":"float32"},{"name":"dense_Dense137/bias","shape":[100],"dtype":"float32"},{"name":"dense_Dense138/kernel","shape":[100,100],"dtype":"float32"},{"name":"dense_Dense138/bias","shape":[100],"dtype":"float32"},{"name":"dense_Dense139/kernel","shape":[100,100],"dtype":"float32"},{"name":"dense_Dense139/bias","shape":[100],"dtype":"float32"},{"name":"dense_Dense140/kernel","shape":[100,100],"dtype":"float32"},{"name":"dense_Dense140/bias","shape":[100],"dtype":"float32"},{"name":"dense_Dense141/kernel","shape":[100,100],"dtype":"float32"},{"name":"dense_Dense141/bias","shape":[100],"dtype":"float32"},{"name":"dense_Dense142/kernel","shape":[100,100],"dtype":"float32"},{"name":"dense_Dense142/bias","shape":[100],"dtype":"float32"},{"name":"dense_Dense143/kernel","shape":[100,100],"dtype":"float32"},{"name":"dense_Dense143/bias","shape":[100],"dtype":"float32"},{"name":"dense_Dense144/kernel","shape":[100,100],"dtype":"float32"},{"name":"dense_Dense144/bias","shape":[100],"dtype":"float32"},{"name":"dense_Dense145/kernel","shape":[100,100],"dtype":"float32"},{"name":"dense_Dense145/bias","shape":[100],"dtype":"float32"},{"name":"dense_Dense146/kernel","shape":[100,100],"dtype":"float32"},{"name":"dense_Dense146/bias","shape":[100],"dtype":"float32"},{"name":"dense_Dense147/kernel","shape":[100,100],"dtype":"float32"},{"name":"dense_Dense147/bias","shape":[100],"dtype":"float32"},{"name":"dense_Dense148/kernel","shape":[100,100],"dtype":"float32"},{"name":"dense_Dense148/bias","shape":[100],"dtype":"float32"},{"name":"dense_Dense149/kernel","shape":[100,100],"dtype":"float32"},{"name":"dense_Dense149/bias","shape":[100],"dtype":"float32"},{"name":"dense_Dense150/kernel","shape":[100,100],"dtype":"float32"},{"name":"dense_Dense150/bias","shape":[100],"dtype":"float32"},{"name":"dense_Dense151/kernel","shape":[100,100],"dtype":"float32"},{"name":"dense_Dense151/bias","shape":[100],"dtype":"float32"},{"name":"dense_Dense152/kernel","shape":[100,100],"dtype":"float32"},{"name":"dense_Dense152/bias","shape":[100],"dtype":"float32"},{"name":"dense_Dense153/kernel","shape":[100,100],"dtype":"float32"},{"name":"dense_Dense153/bias","shape":[100],"dtype":"float32"},{"name":"dense_Dense154/kernel","shape":[100,100],"dtype":"float32"},{"name":"dense_Dense154/bias","shape":[100],"dtype":"float32"},{"name":"dense_Dense155/kernel","shape":[100,100],"dtype":"float32"},{"name":"dense_Dense155/bias","shape":[100],"dtype":"float32"},{"name":"dense_Dense156/kernel","shape":[100,100],"dtype":"float32"},{"name":"dense_Dense156/bias","shape":[100],"dtype":"float32"},{"name":"dense_Dense157/kernel","shape":[100,100],"dtype":"float32"},{"name":"dense_Dense157/bias","shape":[100],"dtype":"float32"},{"name":"dense_Dense158/kernel","shape":[100,100],"dtype":"float32"},{"name":"dense_Dense158/bias","shape":[100],"dtype":"float32"},{"name":"dense_Dense159/kernel","shape":[100,100],"dtype":"float32"},{"name":"dense_Dense159/bias","shape":[100],"dtype":"float32"},{"name":"dense_Dense160/kernel","shape":[100,100],"dtype":"float32"},{"name":"dense_Dense160/bias","shape":[100],"dtype":"float32"},{"name":"dense_Dense161/kernel","shape":[100,100],"dtype":"float32"},{"name":"dense_Dense161/bias","shape":[100],"dtype":"float32"},{"name":"dense_Dense162/kernel","shape":[100,100],"dtype":"float32"},{"name":"dense_Dense162/bias","shape":[100],"dtype":"float32"},{"name":"dense_Dense163/kernel","shape":[100,100],"dtype":"float32"},{"name":"dense_Dense163/bias","shape":[100],"dtype":"float32"},{"name":"dense_Dense164/kernel","shape":[100,100],"dtype":"float32"},{"name":"dense_Dense164/bias","shape":[100],"dtype":"float32"},{"name":"dense_Dense165/kernel","shape":[100,100],"dtype":"float32"},{"name":"dense_Dense165/bias","shape":[100],"dtype":"float32"},{"name":"dense_Dense166/kernel","shape":[100,100],"dtype":"float32"},{"name":"dense_Dense166/bias","shape":[100],"dtype":"float32"},{"name":"dense_Dense167/kernel","shape":[100,100],"dtype":"float32"},{"name":"dense_Dense167/bias","shape":[100],"dtype":"float32"},{"name":"dense_Dense168/kernel","shape":[100,100],"dtype":"float32"},{"name":"dense_Dense168/bias","shape":[100],"dtype":"float32"},{"name":"dense_Dense169/kernel","shape":[100,100],"dtype":"float32"},{"name":"dense_Dense169/bias","shape":[100],"dtype":"float32"},{"name":"dense_Dense170/kernel","shape":[100,100],"dtype":"float32"},{"name":"dense_Dense170/bias","shape":[100],"dtype":"float32"},{"name":"dense_Dense171/kernel","shape":[100,100],"dtype":"float32"},{"name":"dense_Dense171/bias","shape":[100],"dtype":"float32"},{"name":"dense_Dense172/kernel","shape":[100,100],"dtype":"float32"},{"name":"dense_Dense172/bias","shape":[100],"dtype":"float32"},{"name":"dense_Dense173/kernel","shape":[100,100],"dtype":"float32"},{"name":"dense_Dense173/bias","shape":[100],"dtype":"float32"},{"name":"dense_Dense174/kernel","shape":[100,100],"dtype":"float32"},{"name":"dense_Dense174/bias","shape":[100],"dtype":"float32"},{"name":"dense_Dense175/kernel","shape":[100,100],"dtype":"float32"},{"name":"dense_Dense175/bias","shape":[100],"dtype":"float32"},{"name":"dense_Dense176/kernel","shape":[100,100],"dtype":"float32"},{"name":"dense_Dense176/bias","shape":[100],"dtype":"float32"},{"name":"dense_Dense177/kernel","shape":[100,100],"dtype":"float32"},{"name":"dense_Dense177/bias","shape":[100],"dtype":"float32"},{"name":"dense_Dense178/kernel","shape":[100,100],"dtype":"float32"},{"name":"dense_Dense178/bias","shape":[100],"dtype":"float32"},{"name":"dense_Dense179/kernel","shape":[100,100],"dtype":"float32"},{"name":"dense_Dense179/bias","shape":[100],"dtype":"float32"},{"name":"dense_Dense180/kernel","shape":[100,100],"dtype":"float32"},{"name":"dense_Dense180/bias","shape":[100],"dtype":"float32"},{"name":"dense_Dense181/kernel","shape":[100,100],"dtype":"float32"},{"name":"dense_Dense181/bias","shape":[100],"dtype":"float32"},{"name":"dense_Dense182/kernel","shape":[100,100],"dtype":"float32"},{"name":"dense_Dense182/bias","shape":[100],"dtype":"float32"},{"name":"dense_Dense183/kernel","shape":[100,100],"dtype":"float32"},{"name":"dense_Dense183/bias","shape":[100],"dtype":"float32"},{"name":"dense_Dense184/kernel","shape":[100,100],"dtype":"float32"},{"name":"dense_Dense184/bias","shape":[100],"dtype":"float32"},{"name":"dense_Dense185/kernel","shape":[100,100],"dtype":"float32"},{"name":"dense_Dense185/bias","shape":[100],"dtype":"float32"},{"name":"dense_Dense186/kernel","shape":[100,100],"dtype":"float32"},{"name":"dense_Dense186/bias","shape":[100],"dtype":"float32"},{"name":"dense_Dense187/kernel","shape":[100,100],"dtype":"float32"},{"name":"dense_Dense187/bias","shape":[100],"dtype":"float32"},{"name":"dense_Dense188/kernel","shape":[100,100],"dtype":"float32"},{"name":"dense_Dense188/bias","shape":[100],"dtype":"float32"},{"name":"dense_Dense189/kernel","shape":[100,100],"dtype":"float32"},{"name":"dense_Dense189/bias","shape":[100],"dtype":"float32"},{"name":"dense_Dense190/kernel","shape":[100,100],"dtype":"float32"},{"name":"dense_Dense190/bias","shape":[100],"dtype":"float32"},{"name":"dense_Dense191/kernel","shape":[100,100],"dtype":"float32"},{"name":"dense_Dense191/bias","shape":[100],"dtype":"float32"},{"name":"dense_Dense192/kernel","shape":[100,100],"dtype":"float32"},{"name":"dense_Dense192/bias","shape":[100],"dtype":"float32"},{"name":"dense_Dense193/kernel","shape":[100,100],"dtype":"float32"},{"name":"dense_Dense193/bias","shape":[100],"dtype":"float32"},{"name":"dense_Dense194/kernel","shape":[100,100],"dtype":"float32"},{"name":"dense_Dense194/bias","shape":[100],"dtype":"float32"},{"name":"dense_Dense195/kernel","shape":[100,100],"dtype":"float32"},{"name":"dense_Dense195/bias","shape":[100],"dtype":"float32"},{"name":"dense_Dense196/kernel","shape":[100,100],"dtype":"float32"},{"name":"dense_Dense196/bias","shape":[100],"dtype":"float32"},{"name":"dense_Dense197/kernel","shape":[100,100],"dtype":"float32"},{"name":"dense_Dense197/bias","shape":[100],"dtype":"float32"},{"name":"dense_Dense198/kernel","shape":[100,100],"dtype":"float32"},{"name":"dense_Dense198/bias","shape":[100],"dtype":"float32"},{"name":"dense_Dense199/kernel","shape":[100,100],"dtype":"float32"},{"name":"dense_Dense199/bias","shape":[100],"dtype":"float32"},{"name":"dense_Dense200/kernel","shape":[100,100],"dtype":"float32"},{"name":"dense_Dense200/bias","shape":[100],"dtype":"float32"},{"name":"dense_Dense201/kernel","shape":[100,1],"dtype":"float32"},{"name":"dense_Dense201/bias","shape":[1],"dtype":"float32"}]}]}