{"modelTopology":{"class_name":"Sequential","config":{"name":"sequential_1","layers":[{"class_name":"Dense","config":{"units":100,"activation":"sigmoid","use_bias":true,"kernel_initializer":{"class_name":"VarianceScaling","config":{"scale":1,"mode":"fan_avg","distribution":"normal","seed":null}},"bias_initializer":{"class_name":"Zeros","config":{}},"kernel_regularizer":null,"bias_regularizer":null,"activity_regularizer":null,"kernel_constraint":null,"bias_constraint":null,"name":"dense_Dense1","trainable":true,"batch_input_shape":[null,2],"dtype":"float32"}},{"class_name":"Dense","config":{"units":100,"activation":"sigmoid","use_bias":true,"kernel_initializer":{"class_name":"VarianceScaling","config":{"scale":1,"mode":"fan_avg","distribution":"normal","seed":null}},"bias_initializer":{"class_name":"Zeros","config":{}},"kernel_regularizer":null,"bias_regularizer":null,"activity_regularizer":null,"kernel_constraint":null,"bias_constraint":null,"name":"dense_Dense2","trainable":true,"batch_input_shape":[null,100],"dtype":"float32"}},{"class_name":"Dense","config":{"units":100,"activation":"sigmoid","use_bias":true,"kernel_initializer":{"class_name":"VarianceScaling","config":{"scale":1,"mode":"fan_avg","distribution":"normal","seed":null}},"bias_initializer":{"class_name":"Zeros","config":{}},"kernel_regularizer":null,"bias_regularizer":null,"activity_regularizer":null,"kernel_constraint":null,"bias_constraint":null,"name":"dense_Dense3","trainable":true,"batch_input_shape":[null,100],"dtype":"float32"}},{"class_name":"Dense","config":{"units":100,"activation":"sigmoid","use_bias":true,"kernel_initializer":{"class_name":"VarianceScaling","config":{"scale":1,"mode":"fan_avg","distribution":"normal","seed":null}},"bias_initializer":{"class_name":"Zeros","config":{}},"kernel_regularizer":null,"bias_regularizer":null,"activity_regularizer":null,"kernel_constraint":null,"bias_constraint":null,"name":"dense_Dense4","trainable":true,"batch_input_shape":[null,100],"dtype":"float32"}},{"class_name":"Dense","config":{"units":100,"activation":"sigmoid","use_bias":true,"kernel_initializer":{"class_name":"VarianceScaling","config":{"scale":1,"mode":"fan_avg","distribution":"normal","seed":null}},"bias_initializer":{"class_name":"Zeros","config":{}},"kernel_regularizer":null,"bias_regularizer":null,"activity_regularizer":null,"kernel_constraint":null,"bias_constraint":null,"name":"dense_Dense5","trainable":true,"batch_input_shape":[null,100],"dtype":"float32"}},{"class_name":"Dense","config":{"units":100,"activation":"sigmoid","use_bias":true,"kernel_initializer":{"class_name":"VarianceScaling","config":{"scale":1,"mode":"fan_avg","distribution":"normal","seed":null}},"bias_initializer":{"class_name":"Zeros","config":{}},"kernel_regularizer":null,"bias_regularizer":null,"activity_regularizer":null,"kernel_constraint":null,"bias_constraint":null,"name":"dense_Dense6","trainable":true,"batch_input_shape":[null,100],"dtype":"float32"}},{"class_name":"Dense","config":{"units":100,"activation":"sigmoid","use_bias":true,"kernel_initializer":{"class_name":"VarianceScaling","config":{"scale":1,"mode":"fan_avg","distribution":"normal","seed":null}},"bias_initializer":{"class_name":"Zeros","config":{}},"kernel_regularizer":null,"bias_regularizer":null,"activity_regularizer":null,"kernel_constraint":null,"bias_constraint":null,"name":"dense_Dense7","trainable":true,"batch_input_shape":[null,100],"dtype":"float32"}},{"class_name":"Dense","config":{"units":100,"activation":"sigmoid","use_bias":true,"kernel_initializer":{"class_name":"VarianceScaling","config":{"scale":1,"mode":"fan_avg","distribution":"normal","seed":null}},"bias_initializer":{"class_name":"Zeros","config":{}},"kernel_regularizer":null,"bias_regularizer":null,"activity_regularizer":null,"kernel_constraint":null,"bias_constraint":null,"name":"dense_Dense8","trainable":true,"batch_input_shape":[null,100],"dtype":"float32"}},{"class_name":"Dense","config":{"units":100,"activation":"sigmoid","use_bias":true,"kernel_initializer":{"class_name":"VarianceScaling","config":{"scale":1,"mode":"fan_avg","distribution":"normal","seed":null}},"bias_initializer":{"class_name":"Zeros","config":{}},"kernel_regularizer":null,"bias_regularizer":null,"activity_regularizer":null,"kernel_constraint":null,"bias_constraint":null,"name":"dense_Dense9","trainable":true,"batch_input_shape":[null,100],"dtype":"float32"}},{"class_name":"Dense","config":{"units":100,"activation":"sigmoid","use_bias":true,"kernel_initializer":{"class_name":"VarianceScaling","config":{"scale":1,"mode":"fan_avg","distribution":"normal","seed":null}},"bias_initializer":{"class_name":"Zeros","config":{}},"kernel_regularizer":null,"bias_regularizer":null,"activity_regularizer":null,"kernel_constraint":null,"bias_constraint":null,"name":"dense_Dense10","trainable":true,"batch_input_shape":[null,100],"dtype":"float32"}},{"class_name":"Dense","config":{"units":100,"activation":"sigmoid","use_bias":true,"kernel_initializer":{"class_name":"VarianceScaling","config":{"scale":1,"mode":"fan_avg","distribution":"normal","seed":null}},"bias_initializer":{"class_name":"Zeros","config":{}},"kernel_regularizer":null,"bias_regularizer":null,"activity_regularizer":null,"kernel_constraint":null,"bias_constraint":null,"name":"dense_Dense11","trainable":true,"batch_input_shape":[null,100],"dtype":"float32"}},{"class_name":"Dense","config":{"units":100,"activation":"sigmoid","use_bias":true,"kernel_initializer":{"class_name":"VarianceScaling","config":{"scale":1,"mode":"fan_avg","distribution":"normal","seed":null}},"bias_initializer":{"class_name":"Zeros","config":{}},"kernel_regularizer":null,"bias_regularizer":null,"activity_regularizer":null,"kernel_constraint":null,"bias_constraint":null,"name":"dense_Dense12","trainable":true,"batch_input_shape":[null,100],"dtype":"float32"}},{"class_name":"Dense","config":{"units":100,"activation":"sigmoid","use_bias":true,"kernel_initializer":{"class_name":"VarianceScaling","config":{"scale":1,"mode":"fan_avg","distribution":"normal","seed":null}},"bias_initializer":{"class_name":"Zeros","config":{}},"kernel_regularizer":null,"bias_regularizer":null,"activity_regularizer":null,"kernel_constraint":null,"bias_constraint":null,"name":"dense_Dense13","trainable":true,"batch_input_shape":[null,100],"dtype":"float32"}},{"class_name":"Dense","config":{"units":100,"activation":"sigmoid","use_bias":true,"kernel_initializer":{"class_name":"VarianceScaling","config":{"scale":1,"mode":"fan_avg","distribution":"normal","seed":null}},"bias_initializer":{"class_name":"Zeros","config":{}},"kernel_regularizer":null,"bias_regularizer":null,"activity_regularizer":null,"kernel_constraint":null,"bias_constraint":null,"name":"dense_Dense14","trainable":true,"batch_input_shape":[null,100],"dtype":"float32"}},{"class_name":"Dense","config":{"units":100,"activation":"sigmoid","use_bias":true,"kernel_initializer":{"class_name":"VarianceScaling","config":{"scale":1,"mode":"fan_avg","distribution":"normal","seed":null}},"bias_initializer":{"class_name":"Zeros","config":{}},"kernel_regularizer":null,"bias_regularizer":null,"activity_regularizer":null,"kernel_constraint":null,"bias_constraint":null,"name":"dense_Dense15","trainable":true,"batch_input_shape":[null,100],"dtype":"float32"}},{"class_name":"Dense","config":{"units":100,"activation":"sigmoid","use_bias":true,"kernel_initializer":{"class_name":"VarianceScaling","config":{"scale":1,"mode":"fan_avg","distribution":"normal","seed":null}},"bias_initializer":{"class_name":"Zeros","config":{}},"kernel_regularizer":null,"bias_regularizer":null,"activity_regularizer":null,"kernel_constraint":null,"bias_constraint":null,"name":"dense_Dense16","trainable":true,"batch_input_shape":[null,100],"dtype":"float32"}},{"class_name":"Dense","config":{"units":100,"activation":"sigmoid","use_bias":true,"kernel_initializer":{"class_name":"VarianceScaling","config":{"scale":1,"mode":"fan_avg","distribution":"normal","seed":null}},"bias_initializer":{"class_name":"Zeros","config":{}},"kernel_regularizer":null,"bias_regularizer":null,"activity_regularizer":null,"kernel_constraint":null,"bias_constraint":null,"name":"dense_Dense17","trainable":true,"batch_input_shape":[null,100],"dtype":"float32"}},{"class_name":"Dense","config":{"units":100,"activation":"sigmoid","use_bias":true,"kernel_initializer":{"class_name":"VarianceScaling","config":{"scale":1,"mode":"fan_avg","distribution":"normal","seed":null}},"bias_initializer":{"class_name":"Zeros","config":{}},"kernel_regularizer":null,"bias_regularizer":null,"activity_regularizer":null,"kernel_constraint":null,"bias_constraint":null,"name":"dense_Dense18","trainable":true,"batch_input_shape":[null,100],"dtype":"float32"}},{"class_name":"Dense","config":{"units":100,"activation":"sigmoid","use_bias":true,"kernel_initializer":{"class_name":"VarianceScaling","config":{"scale":1,"mode":"fan_avg","distribution":"normal","seed":null}},"bias_initializer":{"class_name":"Zeros","config":{}},"kernel_regularizer":null,"bias_regularizer":null,"activity_regularizer":null,"kernel_constraint":null,"bias_constraint":null,"name":"dense_Dense19","trainable":true,"batch_input_shape":[null,100],"dtype":"float32"}},{"class_name":"Dense","config":{"units":100,"activation":"sigmoid","use_bias":true,"kernel_initializer":{"class_name":"VarianceScaling","config":{"scale":1,"mode":"fan_avg","distribution":"normal","seed":null}},"bias_initializer":{"class_name":"Zeros","config":{}},"kernel_regularizer":null,"bias_regularizer":null,"activity_regularizer":null,"kernel_constraint":null,"bias_constraint":null,"name":"dense_Dense20","trainable":true,"batch_input_shape":[null,100],"dtype":"float32"}},{"class_name":"Dense","config":{"units":100,"activation":"sigmoid","use_bias":true,"kernel_initializer":{"class_name":"VarianceScaling","config":{"scale":1,"mode":"fan_avg","distribution":"normal","seed":null}},"bias_initializer":{"class_name":"Zeros","config":{}},"kernel_regularizer":null,"bias_regularizer":null,"activity_regularizer":null,"kernel_constraint":null,"bias_constraint":null,"name":"dense_Dense21","trainable":true,"batch_input_shape":[null,100],"dtype":"float32"}},{"class_name":"Dense","config":{"units":100,"activation":"sigmoid","use_bias":true,"kernel_initializer":{"class_name":"VarianceScaling","config":{"scale":1,"mode":"fan_avg","distribution":"normal","seed":null}},"bias_initializer":{"class_name":"Zeros","config":{}},"kernel_regularizer":null,"bias_regularizer":null,"activity_regularizer":null,"kernel_constraint":null,"bias_constraint":null,"name":"dense_Dense22","trainable":true,"batch_input_shape":[null,100],"dtype":"float32"}},{"class_name":"Dense","config":{"units":100,"activation":"sigmoid","use_bias":true,"kernel_initializer":{"class_name":"VarianceScaling","config":{"scale":1,"mode":"fan_avg","distribution":"normal","seed":null}},"bias_initializer":{"class_name":"Zeros","config":{}},"kernel_regularizer":null,"bias_regularizer":null,"activity_regularizer":null,"kernel_constraint":null,"bias_constraint":null,"name":"dense_Dense23","trainable":true,"batch_input_shape":[null,100],"dtype":"float32"}},{"class_name":"Dense","config":{"units":100,"activation":"sigmoid","use_bias":true,"kernel_initializer":{"class_name":"VarianceScaling","config":{"scale":1,"mode":"fan_avg","distribution":"normal","seed":null}},"bias_initializer":{"class_name":"Zeros","config":{}},"kernel_regularizer":null,"bias_regularizer":null,"activity_regularizer":null,"kernel_constraint":null,"bias_constraint":null,"name":"dense_Dense24","trainable":true,"batch_input_shape":[null,100],"dtype":"float32"}},{"class_name":"Dense","config":{"units":100,"activation":"sigmoid","use_bias":true,"kernel_initializer":{"class_name":"VarianceScaling","config":{"scale":1,"mode":"fan_avg","distribution":"normal","seed":null}},"bias_initializer":{"class_name":"Zeros","config":{}},"kernel_regularizer":null,"bias_regularizer":null,"activity_regularizer":null,"kernel_constraint":null,"bias_constraint":null,"name":"dense_Dense25","trainable":true,"batch_input_shape":[null,100],"dtype":"float32"}},{"class_name":"Dense","config":{"units":100,"activation":"sigmoid","use_bias":true,"kernel_initializer":{"class_name":"VarianceScaling","config":{"scale":1,"mode":"fan_avg","distribution":"normal","seed":null}},"bias_initializer":{"class_name":"Zeros","config":{}},"kernel_regularizer":null,"bias_regularizer":null,"activity_regularizer":null,"kernel_constraint":null,"bias_constraint":null,"name":"dense_Dense26","trainable":true,"batch_input_shape":[null,100],"dtype":"float32"}},{"class_name":"Dense","config":{"units":100,"activation":"sigmoid","use_bias":true,"kernel_initializer":{"class_name":"VarianceScaling","config":{"scale":1,"mode":"fan_avg","distribution":"normal","seed":null}},"bias_initializer":{"class_name":"Zeros","config":{}},"kernel_regularizer":null,"bias_regularizer":null,"activity_regularizer":null,"kernel_constraint":null,"bias_constraint":null,"name":"dense_Dense27","trainable":true,"batch_input_shape":[null,100],"dtype":"float32"}},{"class_name":"Dense","config":{"units":100,"activation":"sigmoid","use_bias":true,"kernel_initializer":{"class_name":"VarianceScaling","config":{"scale":1,"mode":"fan_avg","distribution":"normal","seed":null}},"bias_initializer":{"class_name":"Zeros","config":{}},"kernel_regularizer":null,"bias_regularizer":null,"activity_regularizer":null,"kernel_constraint":null,"bias_constraint":null,"name":"dense_Dense28","trainable":true,"batch_input_shape":[null,100],"dtype":"float32"}},{"class_name":"Dense","config":{"units":100,"activation":"sigmoid","use_bias":true,"kernel_initializer":{"class_name":"VarianceScaling","config":{"scale":1,"mode":"fan_avg","distribution":"normal","seed":null}},"bias_initializer":{"class_name":"Zeros","config":{}},"kernel_regularizer":null,"bias_regularizer":null,"activity_regularizer":null,"kernel_constraint":null,"bias_constraint":null,"name":"dense_Dense29","trainable":true,"batch_input_shape":[null,100],"dtype":"float32"}},{"class_name":"Dense","config":{"units":100,"activation":"sigmoid","use_bias":true,"kernel_initializer":{"class_name":"VarianceScaling","config":{"scale":1,"mode":"fan_avg","distribution":"normal","seed":null}},"bias_initializer":{"class_name":"Zeros","config":{}},"kernel_regularizer":null,"bias_regularizer":null,"activity_regularizer":null,"kernel_constraint":null,"bias_constraint":null,"name":"dense_Dense30","trainable":true,"batch_input_shape":[null,100],"dtype":"float32"}},{"class_name":"Dense","config":{"units":1,"activation":"sigmoid","use_bias":true,"kernel_initializer":{"class_name":"VarianceScaling","config":{"scale":1,"mode":"fan_avg","distribution":"normal","seed":null}},"bias_initializer":{"class_name":"Zeros","config":{}},"kernel_regularizer":null,"bias_regularizer":null,"activity_regularizer":null,"kernel_constraint":null,"bias_constraint":null,"name":"dense_Dense31","trainable":true,"batch_input_shape":[null,100],"dtype":"float32"}}]},"keras_version":"tfjs-layers 2.1.0","backend":"tensor_flow.js"},"format":"layers-model","generatedBy":"TensorFlow.js tfjs-layers v2.1.0","convertedBy":null,"weightsManifest":[{"paths":["./model.weights.bin"],"weights":[{"name":"dense_Dense1/kernel","shape":[2,100],"dtype":"float32"},{"name":"dense_Dense1/bias","shape":[100],"dtype":"float32"},{"name":"dense_Dense2/kernel","shape":[100,100],"dtype":"float32"},{"name":"dense_Dense2/bias","shape":[100],"dtype":"float32"},{"name":"dense_Dense3/kernel","shape":[100,100],"dtype":"float32"},{"name":"dense_Dense3/bias","shape":[100],"dtype":"float32"},{"name":"dense_Dense4/kernel","shape":[100,100],"dtype":"float32"},{"name":"dense_Dense4/bias","shape":[100],"dtype":"float32"},{"name":"dense_Dense5/kernel","shape":[100,100],"dtype":"float32"},{"name":"dense_Dense5/bias","shape":[100],"dtype":"float32"},{"name":"dense_Dense6/kernel","shape":[100,100],"dtype":"float32"},{"name":"dense_Dense6/bias","shape":[100],"dtype":"float32"},{"name":"dense_Dense7/kernel","shape":[100,100],"dtype":"float32"},{"name":"dense_Dense7/bias","shape":[100],"dtype":"float32"},{"name":"dense_Dense8/kernel","shape":[100,100],"dtype":"float32"},{"name":"dense_Dense8/bias","shape":[100],"dtype":"float32"},{"name":"dense_Dense9/kernel","shape":[100,100],"dtype":"float32"},{"name":"dense_Dense9/bias","shape":[100],"dtype":"float32"},{"name":"dense_Dense10/kernel","shape":[100,100],"dtype":"float32"},{"name":"dense_Dense10/bias","shape":[100],"dtype":"float32"},{"name":"dense_Dense11/kernel","shape":[100,100],"dtype":"float32"},{"name":"dense_Dense11/bias","shape":[100],"dtype":"float32"},{"name":"dense_Dense12/kernel","shape":[100,100],"dtype":"float32"},{"name":"dense_Dense12/bias","shape":[100],"dtype":"float32"},{"name":"dense_Dense13/kernel","shape":[100,100],"dtype":"float32"},{"name":"dense_Dense13/bias","shape":[100],"dtype":"float32"},{"name":"dense_Dense14/kernel","shape":[100,100],"dtype":"float32"},{"name":"dense_Dense14/bias","shape":[100],"dtype":"float32"},{"name":"dense_Dense15/kernel","shape":[100,100],"dtype":"float32"},{"name":"dense_Dense15/bias","shape":[100],"dtype":"float32"},{"name":"dense_Dense16/kernel","shape":[100,100],"dtype":"float32"},{"name":"dense_Dense16/bias","shape":[100],"dtype":"float32"},{"name":"dense_Dense17/kernel","shape":[100,100],"dtype":"float32"},{"name":"dense_Dense17/bias","shape":[100],"dtype":"float32"},{"name":"dense_Dense18/kernel","shape":[100,100],"dtype":"float32"},{"name":"dense_Dense18/bias","shape":[100],"dtype":"float32"},{"name":"dense_Dense19/kernel","shape":[100,100],"dtype":"float32"},{"name":"dense_Dense19/bias","shape":[100],"dtype":"float32"},{"name":"dense_Dense20/kernel","shape":[100,100],"dtype":"float32"},{"name":"dense_Dense20/bias","shape":[100],"dtype":"float32"},{"name":"dense_Dense21/kernel","shape":[100,100],"dtype":"float32"},{"name":"dense_Dense21/bias","shape":[100],"dtype":"float32"},{"name":"dense_Dense22/kernel","shape":[100,100],"dtype":"float32"},{"name":"dense_Dense22/bias","shape":[100],"dtype":"float32"},{"name":"dense_Dense23/kernel","shape":[100,100],"dtype":"float32"},{"name":"dense_Dense23/bias","shape":[100],"dtype":"float32"},{"name":"dense_Dense24/kernel","shape":[100,100],"dtype":"float32"},{"name":"dense_Dense24/bias","shape":[100],"dtype":"float32"},{"name":"dense_Dense25/kernel","shape":[100,100],"dtype":"float32"},{"name":"dense_Dense25/bias","shape":[100],"dtype":"float32"},{"name":"dense_Dense26/kernel","shape":[100,100],"dtype":"float32"},{"name":"dense_Dense26/bias","shape":[100],"dtype":"float32"},{"name":"dense_Dense27/kernel","shape":[100,100],"dtype":"float32"},{"name":"dense_Dense27/bias","shape":[100],"dtype":"float32"},{"name":"dense_Dense28/kernel","shape":[100,100],"dtype":"float32"},{"name":"dense_Dense28/bias","shape":[100],"dtype":"float32"},{"name":"dense_Dense29/kernel","shape":[100,100],"dtype":"float32"},{"name":"dense_Dense29/bias","shape":[100],"dtype":"float32"},{"name":"dense_Dense30/kernel","shape":[100,100],"dtype":"float32"},{"name":"dense_Dense30/bias","shape":[100],"dtype":"float32"},{"name":"dense_Dense31/kernel","shape":[100,1],"dtype":"float32"},{"name":"dense_Dense31/bias","shape":[1],"dtype":"float32"}]}]}